test/models/hf-internal-testing/tiny-random-gpt2-fp32/past.onnx (onnx, 578141 bytes, 27 tensors)

transformer.wte.weight f4 [1000, 32]
000000 cd 1b a9 bc e1 ce 4c 3c 42 c7 ec bc 2b 2f 4c 3c
       -0.02064314 0.012500496 -0.028903607 0.012462418
000010 f0 d4 52 3b d5 e1 c1 3b 15 3d e5 bc 69 16 75 bc
       0.0032170378 0.005916814 -0.027983228 -0.014958956
000020 fb ba 4d bc e9 35 0c 3b 24 b9 2b 3b eb 9e 88 ba
       -0.012556787 0.0021394438 0.0026202882 -0.0010423338
000030 60 90 86 3b 97 a1 d9 3b 00 c6 2d bb 9b f5 75 3c
       0.0041065663 0.0066415775 -0.0026515722 0.01501217
000040 7d 45 d9 3b 30 ff af bb 37 93 f5 3c e7 1d 3d 3b
       0.006630598 -0.005370997 0.029977424 0.0028856935
000050 47 43 7f 3c 0b 78 34 bc fd 57 22 3d 7b 7e 8d bc
       0.015580005 -0.011014949 0.039634693 -0.017272225
000060 cb 2e 50 bc 25 25 66 bc 5b 95 22 3c e0 5d 77 bd
       -0.012706469 -0.014046942 0.009923304 -0.06039226
000070 9e a4 2c 3b e0 6e ec 3a 93 66 f5 bc 45 8b 36 3c
       0.0026343237 0.0018038414 -0.029956138 0.011141603
000080 81 e0 c3 bc c2 b6 81 bc a2 91 04 3c 2c d2 60 bb
       -0.023910763 -0.015834216 0.008091362 -0.003430496
000090 fb a8 ae 3c 2f d2 bf 3a 94 6c 3d bc 79 02 e5 bc
       0.02132081 0.0014634783 -0.011561532 -0.02795528
0000a0 d0 94 38 bc 0f 65 6f 3b ab 9c 63 bc ea d1 cd bc
       -0.011265948 0.0036528741 -0.013892333 -0.025124509
0000b0 ef f8 40 bc 87 0a 13 bd 7b 25 d7 bc c6 2b 72 3c
       -0.0117781 -0.03589871 -0.02626299 0.014780944
0000c0 95 b2 f2 bb de a5 28 3c 20 74 4b bc a0 1d f7 3c
       -0.0074065425 0.010293452 -0.012417823 0.030165493
0000d0 00 4c 30 ba b2 e5 89 3c f8 a6 2a bc 7e f4 a9 bc
       -0.0006725192 0.01683316 -0.010415785 -0.020746466
0000e0 ca 38 f7 bb 38 c6 9e 3b ce cf 2a bb 28 74 99 bb
       -0.0075446116 0.004845407 -0.0026063803 -0.0046830364
0000f0 c6 1c 4d bc de 62 34 3c 19 23 aa 3c 43 c2 11 bd
       -0.012519067 0.0110099 0.020768689 -0.035585653
000100 04 0b 84 bb be ff a3 3c bd 4a 96 3c 16 1d 8e bc
       -0.0040296335 0.020019408 0.018346185 -0.017347854
000110 e7 62 0c bd 9e 16 42 bd ee 62 cd 3c 62 0e 7c bc
       -0.034274008 -0.04738485 0.025071587 -0.0153842885
000120 30 32 7a bb 4e e6 ca 3c bd 7f 2f bc 53 68 3d bd
       -0.0038176887 0.024768021 -0.0107116075 -0.04624207
000130 17 a2 f5 3b d0 7d cb bb 49 cd 8a 3c c9 ae e0 bc
       0.0074961293 -0.0062100664 0.01694359 -0.027427094
000140 54 f5 9c bc c1 16 b7 3c c1 6d a8 bc fb 99 25 3b
       -0.01915995 0.022349717 -0.020560147 0.0025268781
000150 24 9b 8a 3c 10 f0 00 3c 46 b3 ae ba c2 2c d6 3c
       0.01691968 0.007869735 -0.0013328574 0.026144389
000160 47 e2 54 bc 3f 72 84 3a 79 09 16 b7 34 e0 c7 39
       -0.012993402 0.0010104849 -8.942902e-06 0.00038123282
000170 6c fe 1c 3c 42 e5 75 3b 1d c6 9e bc 92 9e 1b bb
       0.009582143 0.0037520682 -0.019381577 -0.0023745638
000180 5e 4e 9b 3b f3 66 a3 bc 29 a0 94 3b c9 d5 cf 3c
       0.0047395667 -0.019946551 0.004535694 0.025370495
000190 04 b1 34 3d 74 72 fa 3b 97 09 91 bc 8d 75 27 3d
       0.044114128 0.0076430384 -0.017704768 0.04088359
0001a0 ea 1e 36 bc 98 30 37 3c f7 2a 66 3b 47 80 a0 bb
       -0.011115769 0.011181019 0.0035120824 -0.0048981044
0001b0 9b 99 96 bc f9 10 ab 3c c7 28 f9 bb d4 d3 97 bc
       -0.018383792 0.020882117 -0.007603738 -0.018533625
0001c0 d2 78 89 3a a6 5a 60 3c 29 90 a5 3b c2 bf 16 bc
       0.0010488278 0.013693487 0.0050525856 -0.009200992
0001d0 67 c1 26 bc 45 92 dd 3c d3 30 7b 3c df 80 08 bd
       -0.010177947 0.027047286 0.015331465 -0.033326026
0001e0 b6 2f ac 3c 72 a7 b1 3c 05 ba c9 3b 89 0a 3f 3c
       0.021018844 0.02168629 0.0061562085 0.011660227
0001f0 c8 36 20 3b ae 33 80 ba e0 0d 44 bb c8 b0 9d 3b
       0.0024446715 -0.0009781027 -0.0029915497 0.0048123337
000200 2d 7a 1d 3c b4 26 84 bc dc 30 4e bc 6b 8e b3 bb
       0.0096116485 -0.016131736 -0.012584891 -0.005479624
000210 1b a8 f2 3b d1 42 91 bc 2a 19 b5 bc 8c ff fe 3a
       0.0074052936 -0.017732056 -0.022106726 0.0019454821
000220 c5 1f ed bb ac 01 8e 3c b6 05 a0 bb 62 6c c3 bb
       -0.0072364532 0.017334782 -0.0048834933 -0.005963848
000230 94 10 dd bc b3 3c d3 3c e5 ea 4a bc 37 04 7e 3b
       -0.026985444 0.02578578 -0.012385105 0.0038759836
000240 b6 d0 1a bc 6c ee 01 3b 72 f4 f1 bc e2 9a 06 3d
       -0.009449175 0.0019825948 -0.029535506 0.03286255
000250 ce 13 c1 bb d4 1e cc 3c 2a 14 8c bc f6 4d 8e 3a
       -0.0058922535 0.024917044 -0.017099459 0.0010856974
000260 1b f4 3b 3b f5 1d 81 bc 05 c2 70 3b bc cd fa bc
       0.0028679434 -0.015761355 0.0036736738 -0.03061568
000270 21 80 7f 39 20 ab 74 3b 97 08 17 3d 84 a4 a9 bb
       0.00024366427 0.0037333444 0.036873426 -0.0051770825
000280 70 33 6a bb e1 4f ac 3c 52 a8 a0 3c ae 50 7a bc
       -0.0035736226 0.021034183 0.019611511 -0.015278025
000290 50 b0 53 3c ed 10 98 3c f2 be e5 3b 70 5c 62 bc
       0.012920454 0.018562758 0.007011288 -0.013815984
0002a0 2a e2 16 bd ac 72 68 3c b0 7f 3f bb bb 20 de 3c
       -0.03683678 0.014187496 -0.0029220395 0.027115216
0002b0 c1 9f 04 bd 1c d9 6c bc e2 4f 0e 3d 56 3f 04 bc
       -0.032378916 -0.01445606 0.03474415 -0.008071741
0002c0 66 fd 1e 3b 73 87 97 bb f5 8b db 3c 36 32 17 bc
       0.0024259924 -0.004624301 0.026800135 -0.00922828
0002d0 55 13 ce bc fc f4 fb bc 4e 51 1a bb c4 c1 15 bd
       -0.025155703 -0.030756466 -0.0023546997 -0.036561742
0002e0 3b 7d 7d bd de be ac 3c 70 ac 21 bb 22 aa 16 3b
       -0.061887007 0.021087106 -0.002466943 0.002298959
0002f0 70 b9 c4 3c 8f e8 06 bd 86 c7 68 bc 55 8e 5c bb
       0.024014205 -0.03293663 -0.014207726 -0.0033654172
000300 37 92 3f 3b 08 14 06 3d d2 d9 fe bb e5 e8 3d 3c
       0.0029231438 0.032733947 -0.007777431 0.011591171
000310 bb 2e 0c bd d8 c8 9e bc c1 06 36 bd dd 6e ae 3c
       -0.034224253 -0.01938288 -0.044440035 0.021293098
000320 e2 93 ab 3c 35 25 0e 3d 12 33 00 bc 78 3b 3a bd
       0.02094454 0.034703452 -0.007824676 -0.04546687
000330 36 34 92 bc b5 f0 58 3b 9d 8c c9 3b 35 51 e7 3b
       -0.017847162 0.0033102457 0.0061507956 0.007059241
000340 d0 28 00 bc 56 1a 2f bd ad fa 3c bc de ef 8e 3b
       -0.00782223 -0.042749725 -0.011534375 0.0043620905
000350 42 b9 e7 3b f1 e8 12 bd b2 01 9e 3c db 2d 2b 3d
       0.007071645 -0.03586668 0.019287918 0.041791778
000360 19 c8 23 bb f9 8f 3c bc 84 e3 c7 3b 94 b2 95 bc
       -0.0024991094 -0.011508935 0.00610012 -0.01827363
000370 d5 92 85 bb 1d 29 18 3c f2 d4 89 3c 94 de 03 bb
       -0.0040763416 0.009287146 0.016825173 -0.002012168
000380 37 ee a0 bc d8 ff a9 3c 5c bd 25 3c e0 72 45 3d
       -0.01964484 0.020751879 0.010115948 0.048205256
000390 89 12 9c 3c 4f 26 c8 bc c6 71 09 bc 21 6e 04 bc
       0.019051807 -0.02443233 -0.008388942 -0.008082897
0003a0 c7 59 c8 3b c2 4d 95 3c 8a f1 22 3d 17 d4 ce bc
       0.006114218 0.018225554 0.03978113 -0.025247617
0003b0 14 f5 c6 3b c2 89 30 bc 94 c3 e1 3c 04 85 16 3d
       0.006071696 -0.0107750315 0.02755908 0.036747947
0003c0 37 75 a3 bc 77 3c f2 3c 4e 83 30 3b b6 51 10 bd
       -0.019953353 0.029569848 0.0026933732 -0.035234176
0003d0 6f 9e eb bc 07 4a 12 3d 20 17 93 bb 0c 3f fb 3c
       -0.02876207 0.03571513 -0.0044888407 0.030669712
0003e0 fd 90 35 3c 3e 61 0a bb b5 ff b2 3c e1 5d 9b 3c
       0.011081931 -0.002111509 0.021850446 0.018965663
0003f0 6d a7 83 3a 0f 93 80 bb ab 3a ea 3b c3 05 f4 3b
       0.0010044404 -0.0039237808 0.007148107 0.007446976

transformer.wpe.weight f4 [512, 32]
000000 69 c3 7e 3c b4 01 a7 bc 8e 55 f6 3c 49 ed bf 3c
       0.015549519 -0.020386554 0.030070093 0.023428576
000010 00 1b d2 39 7e 22 b8 bc ce 81 a5 bd 80 74 bf 3c
       0.00040074438 -0.022477385 -0.08081399 0.023370981
000020 43 96 fb bb ed ba 22 3c d9 97 2a 3c c3 09 1e 3c
       -0.0076778247 0.009932262 0.01041218 0.009645882
000030 5b 84 13 bc 99 8a 1f 3c b5 5e 4a bb bb 46 85 3b
       -0.009003724 0.009737634 -0.0030879204 0.0040672696
000040 d0 4b 04 3d 93 e3 fe bb 26 7d 2f bc f9 7a 59 bd
       0.032298863 -0.007778594 -0.01071099 -0.05309579
000050 65 ff 6a 3c ff c6 02 bd a5 c7 15 bc ad e0 81 bb
       0.014343117 -0.03192806 -0.009141837 -0.003963551
000060 9b ec 12 bd 5e 28 13 3c 65 7d 73 3c fb 09 46 3c
       -0.035870176 0.008981792 0.014861439 0.0120873405
000070 20 51 1b bd 66 94 dd 3c a7 6d b2 bc 10 fc 12 3c
       -0.037919164 0.027048301 -0.021780802 0.008971229
000080 3c 40 76 3c 9e d8 aa ba 22 47 2f 3c 67 44 d2 bb
       0.015029963 -0.0013034528 0.010698112 -0.0064168456
000090 65 15 7c bc 84 bb 53 bb 3e 15 11 3c 0f 79 de bc
       -0.01538596 -0.0032307813 0.008855162 -0.027157335
0000a0 09 73 a1 bb 5c ec 39 3c 7b a7 0c bb d5 b7 6a bb
       -0.0049270433 0.011347856 -0.002146213 -0.0035815139
0000b0 ef 65 da 3b 8a 3c 3a 3a 7b 75 0a 3c c0 68 91 bc
       0.0066649835 0.0007104358 0.008450861 -0.017750144
0000c0 79 93 3c 3c 7d 53 9d 3c 20 d6 8c bc 0f b2 e1 3c
       0.01150977 0.01920485 -0.017191947 0.027550725
0000d0 c1 9b b0 bb 90 4a c6 3b e4 fc 4e bc e5 97 cb bb
       -0.005389661 0.006051369 -0.012633536 -0.0062131756
0000e0 4a a4 8e bb 2f 25 0e 3d 74 ef 49 3c 89 ad ab 3c
       -0.004353081 0.03470343 0.0123251565 0.020956771
0000f0 ae 93 7b 3c cf 31 2d 3d 40 1c c6 3c 73 a5 70 bc
       0.015355034 0.04228383 0.024183393 -0.014687884
000100 de 70 ff ba 66 3c e0 bc c1 5f 95 bc 94 f4 fa 39
       -0.0019488593 -0.02737255 -0.018234136 0.0004786594
000110 81 bd 05 bd bd 59 23 3c 48 2c 1e 3d 98 96 58 3b
       -0.032651428 0.009970126 0.03861645 0.0033048745
000120 4f 10 28 3c 7c 9b 7f bc 5c 37 4e 3c 07 af bf 3c
       0.0102577945 -0.015601035 0.012586441 0.02339889
000130 81 54 83 3c 38 b9 48 bb 35 52 66 3c 87 83 67 3c
       0.016031506 -0.0030627977 0.014057686 0.01413048
000140 9b ff 90 3c 34 82 ab 3c a7 a5 29 ba c2 e1 0e bd
       0.017700007 0.02093611 -0.00064715225 -0.03488327
000150 82 2a 2b 3b 79 7a 1a 3c 33 4c 02 3b 91 c7 0a bc
       0.0026117866 0.009428614 0.0019881844 -0.008470432
000160 bd 58 fa ba ed 60 39 3c 4d ca a1 bc 4d 83 94 3b
       -0.0019099932 0.011314613 -0.019749785 0.004532254
000170 17 3d 1f 3c 1b 38 f7 bb 66 15 5d 3c 66 c9 11 bd
       0.009719155 -0.00754453 0.013493871 -0.03559246
000180 af e7 3a 3c 0f 38 13 bc 77 5a 1f 3b e1 ec 80 3c
       0.011407777 -0.008985533 0.0024315396 0.015737953
000190 b2 85 e1 3b de 0d 65 b9 eb 6f b3 bc fd 93 94 3c
       0.006882393 -0.00021844308 -0.021903953 0.018136973
0001a0 72 17 63 bc fc ae ad bc 90 bb fa 39 53 ad be ba
       -0.01386057 -0.021201603 0.0004782346 -0.0014547504
0001b0 30 84 96 bc f8 82 cb bb 4b 31 08 bc 4d 12 03 bb
       -0.018373579 -0.006210681 -0.008312534 -0.0019999922
0001c0 2b de 82 bc 61 8e ae 3c 07 ab 4d 3c ed 5c 04 3c
       -0.015975079 0.021308126 0.012552983 0.008078796
0001d0 05 f5 1a 3d e0 8a 6b bc 92 d0 0c bc 65 82 28 3c
       0.037831325 -0.014376372 -0.008594649 0.010284995
0001e0 0d 99 a4 3a 46 0f a3 3c d8 9e d4 bc 90 4e 18 bb
       0.001255782 0.019904744 -0.025954649 -0.0023240186
0001f0 d4 31 1a 3c 1d 03 ba 3c 95 c3 59 bc 66 a3 fb 3c
       0.009411294 0.022706563 -0.013291259 0.030717563
000200 6f 71 3a 3c 0d f1 01 bd 00 45 a0 bb ae 4b 1d ba
       0.011379584 -0.031724025 -0.004891038 -0.0006000352
000210 6b ef 84 bd 07 e6 94 bb 77 2d 51 bc 83 e1 9f 3c
       -0.06490978 -0.004544023 -0.012767187 0.019516712
000220 c0 28 4e 3c 09 fe a3 3c 0f cb c7 bc 49 9f 2d bc
       0.012582958 0.020018594 -0.024388818 -0.010597059
000230 66 47 06 3c 5e 78 9a 3a f5 2a cd bc 06 88 23 3c
       0.008195734 0.001178514 -0.025044898 0.009981161
000240 70 12 d6 bc 98 c1 34 3c 63 07 fe 3c b6 35 a3 bc
       -0.026131839 0.0110324845 0.031009382 -0.019923072
000250 ea 55 bb 3b 86 d1 9a 3a 89 b0 10 3c ba c2 a3 bc
       0.005717029 0.001181171 0.008831152 -0.019990314
000260 c7 33 36 3d e1 3f 45 ba e5 1c 9e bb db 55 c6 bc
       0.044482972 -0.00075244723 -0.004825222 -0.024210861
000270 e9 ab 38 3b 7d 81 20 3d 1c e2 f5 bc 5b de 31 3c
       0.0028178638 0.03918599 -0.030015044 0.010856236
000280 f3 85 2f 3c 72 ec 2a 3c 11 99 83 3c 22 f3 ab 3c
       0.010713088 0.0104323495 0.016064199 0.020989958
000290 e6 19 05 bd 80 91 8b bc dc e4 11 3d c2 8c f3 3b
       -0.0324954 -0.017037153 0.035618648 0.007432551
0002a0 61 d0 76 3c 45 5b 6c 3c 09 8c 9a bc d4 5a b6 3c
       0.01506433 0.014426057 -0.018865602 0.022260107
0002b0 34 7a 9f bc 6b e3 78 3b 90 ff a8 3b 17 a7 52 3c
       -0.01946745 0.0037977349 0.0051574185 0.01285722
0002c0 21 24 36 3c 85 29 d1 3b 01 0d da bb f7 49 7b 3c
       0.011117012 0.0063831233 -0.006654382 0.015337459
0002d0 12 f6 61 3b e5 51 33 bc f3 33 58 3c 6a 7f b3 bb
       0.0034478945 -0.010944818 0.013195979 -0.0054778354
0002e0 b6 81 2c bc 2d e2 26 bd d4 20 76 bc 75 c5 e7 bc
       -0.010528972 -0.04074304 -0.015022475 -0.028292397
0002f0 3a f2 98 3c ad f4 a4 bc 18 f1 c2 b9 7d f8 71 bc
       0.01867019 -0.020136202 -0.00037182192 -0.014768717
000300 f7 40 1c bc f9 72 81 bc df 2b 1c bc 04 0c 25 bb
       -0.009536973 -0.015801894 -0.009531944 -0.0025184164
000310 14 3a 18 3d af f1 85 3c 06 bd fb ba 12 f0 e0 3c
       0.037164763 0.016350595 -0.0019206114 0.027458224
000320 f4 c4 8e bb c3 53 22 3b 8f 50 71 bd fc d4 dc bc
       -0.0043569747 0.0024769164 -0.058914717 -0.026957028
000330 66 13 63 bb 97 e4 ef bb 2e 4b 37 3c d7 a7 70 bc
       -0.0034649014 -0.007320951 0.011187358 -0.014688454
000340 10 ab 41 3a 38 9a 75 bb c5 58 3c 3c ee a4 c3 3b
       0.0007387856 -0.0037475955 0.011495774 0.005970589
000350 1a de 86 3c f2 a3 03 3a e7 95 06 bc fc 18 d9 bb
       0.016463328 0.0005021683 -0.00821445 -0.006625293
000360 5b 5e d1 bb 6e 84 e1 bb 53 4d 09 3d 81 5e 95 3b
       -0.006389422 -0.006882242 0.033521008 0.004558385
000370 1e 6e cb bc ef 52 0a 3b f2 55 36 3c 4d c1 8c bb
       -0.024832781 0.0021106561 0.011128889 -0.004295504
000380 60 1a ac bb af 7e b2 b9 49 27 ca bc 2a bd 1e 3d
       -0.0052521676 -0.00034045192 -0.024676936 0.03875462
000390 e0 4b 30 bd 5a 28 92 bc f2 78 02 3c d6 f7 a3 bc
       -0.04304111 -0.017841507 0.007963406 -0.020015638
0003a0 14 ee be 3b f3 f9 71 3c 0c de 50 3b 13 0b fd ba
       0.005826721 0.014769065 0.0031870632 -0.0019305669
0003b0 60 34 a9 3c 2b f7 0e 3d 92 e3 36 3c 35 3e d6 3b
       0.020654857 0.034903686 0.011162655 0.0065381774
0003c0 7e 12 b3 bc b1 42 86 3c af e5 2e bc 64 dd 94 bb
       -0.021859404 0.016389223 -0.010674878 -0.0045429934
0003d0 e2 e0 a3 bc d7 d5 cf bc 3d 64 e6 bb 7c 07 17 bc
       -0.020004693 -0.025370521 -0.0070309923 -0.009218093
0003e0 6c 4e d0 bc 81 2f f6 3c bb d1 4b 3d a9 87 ca 3b
       -0.02542802 0.030051949 0.04976056 0.0061807227
0003f0 50 34 74 3c d0 47 80 3b 90 0d f4 bc 53 2e 21 bc
       0.01490505 0.0039148107 -0.029791623 -0.009837705

transformer.h.0.ln_1.weight f4 [32]
000000 00 00 80 3f 00 00 80 3f 00 00 80 3f 00 00 80 3f
       1.0 1.0 1.0 1.0
000010 00 00 80 3f 00 00 80 3f 00 00 80 3f 00 00 80 3f
       1.0 1.0 1.0 1.0
000020 00 00 80 3f 00 00 80 3f 00 00 80 3f 00 00 80 3f
       1.0 1.0 1.0 1.0
000030 00 00 80 3f 00 00 80 3f 00 00 80 3f 00 00 80 3f
       1.0 1.0 1.0 1.0
000040 00 00 80 3f 00 00 80 3f 00 00 80 3f 00 00 80 3f
       1.0 1.0 1.0 1.0
000050 00 00 80 3f 00 00 80 3f 00 00 80 3f 00 00 80 3f
       1.0 1.0 1.0 1.0
000060 00 00 80 3f 00 00 80 3f 00 00 80 3f 00 00 80 3f
       1.0 1.0 1.0 1.0
000070 00 00 80 3f 00 00 80 3f 00 00 80 3f 00 00 80 3f
       1.0 1.0 1.0 1.0

transformer.h.0.ln_1.bias f4 [32]
000000 00 00 00 00 00 00 00 00 00 00 00 00 00 00 00 00
       0.0 0.0 0.0 0.0
000010 00 00 00 00 00 00 00 00 00 00 00 00 00 00 00 00
       0.0 0.0 0.0 0.0
000020 00 00 00 00 00 00 00 00 00 00 00 00 00 00 00 00
       0.0 0.0 0.0 0.0
000030 00 00 00 00 00 00 00 00 00 00 00 00 00 00 00 00
       0.0 0.0 0.0 0.0
000040 00 00 00 00 00 00 00 00 00 00 00 00 00 00 00 00
       0.0 0.0 0.0 0.0
000050 00 00 00 00 00 00 00 00 00 00 00 00 00 00 00 00
       0.0 0.0 0.0 0.0
000060 00 00 00 00 00 00 00 00 00 00 00 00 00 00 00 00
       0.0 0.0 0.0 0.0
000070 00 00 00 00 00 00 00 00 00 00 00 00 00 00 00 00
       0.0 0.0 0.0 0.0

transformer.h.0.attn.c_attn.weight f4 [32, 96]
000000 00 c3 d1 3c 52 4c ef 3c e1 85 29 3c 3f 11 0f bc
       0.025605679 0.029211197 0.010346861 -0.008732139
000010 32 d4 8f bc 57 7a 03 3b 5b 5b f2 3b fe 12 d0 bb
       -0.017557237 0.0020061934 0.0073961443 -0.0063499203
000020 fd e7 c4 bc 96 a3 a3 3c 8e f7 47 bb 98 92 41 bc
       -0.024036402 0.019975465 -0.0030512544 -0.011814736
000030 46 b4 dd bb 82 3f 6a bb fe e4 3f 3c 38 33 ee 3b
       -0.006765875 -0.003574342 0.011712311 0.0072692893
000040 14 b3 18 3d dc 9f 9e 3c 00 ed 27 bc 18 86 01 bc
       0.037280157 0.019363336 -0.010249376 -0.007905506
000050 9b a0 37 3b f0 95 ef 3c af 2c 68 3a 8c 21 a2 bc
       0.0028019312 0.0292463 0.0008856756 -0.019791387
000060 cd 9b 0f 3c e6 d3 3e b9 19 93 8b bc 89 5f 11 3c
       0.008765173 -0.0001819875 -0.017037915 0.008872875
000070 98 c2 a7 3c 82 b5 db 3c bd a0 a7 bb 41 04 3a 3b
       0.020478532 0.026819948 -0.005115597 0.0028383883
000080 ea c3 c7 3b 56 71 1e 3b 26 70 59 3c b8 e3 a6 bc
       0.006096353 0.002417644 0.013271367 -0.020372257
000090 8e f2 52 bc be 53 ca bc 8a 7f 33 3c ea f0 cd 3b
       -0.012875212 -0.024698135 0.010955701 0.0062848227
0000a0 1e cd 12 3d b6 42 09 3d 13 f3 bb 3c df 3b 8c bc
       0.035840146 0.033510886 0.022943055 -0.017118393
0000b0 74 6f b0 bc 5a e2 18 ba 7d 1c 41 bd bc 3b 85 3c
       -0.02153752 -0.0005832069 -0.04714631 0.016263835
0000c0 74 69 e1 3c e8 f0 88 39 4e f1 c4 3c f3 a2 ae 3c
       0.027516104 0.0002611943 0.024040844 0.021317935
0000d0 a9 9a 52 bc b9 42 f6 3c 9d 20 3c bc 89 26 9d 3c
       -0.012854257 0.030061113 -0.011482385 0.019183414
0000e0 cd 9b 8b bc 27 f7 31 bd 8c 26 91 3c d0 b4 74 3c
       -0.017042065 -0.043448593 0.017718576 0.014935687
0000f0 e3 36 a3 bb 7f 1a 07 bd 41 31 57 bd 06 a2 98 3c
       -0.0049809082 -0.032984253 -0.052537207 0.018631946
000100 03 59 17 bd 53 25 a9 3b 69 8a 2e 3c 6f 1b 4c 3c
       -0.036950123 0.00516192 0.010653117 0.012457713
000110 ab 4a a5 3c 4a 5e 72 3c c7 86 2c 3d 35 56 d2 3b
       0.020177206 0.014792988 0.04212072 0.006418968
000120 b3 a6 ab bc 40 ad c9 bc 8b 24 33 bc 42 ea e4 3a
       -0.020953512 -0.024618745 -0.0109340055 0.0017464834
000130 47 22 cf 3c 59 5a c7 3b a6 de 84 bb 02 f0 17 3d
       0.0252849 0.0060837683 -0.004054862 0.037094124
000140 ca f5 ea 3b 7a a7 08 3d ca ff a7 bb 47 5e 3d bc
       0.0071704136 0.033362843 -0.005126928 -0.011558122
000150 9c 14 9b bc 5b d8 95 3b 75 ab d6 bb 1e 66 0b bb
       -0.018930726 0.0045729107 -0.006551201 -0.0021270583
000160 4b 9f 8b 3b ac 98 e8 bc 42 62 ad 3c 14 5a d0 3c
       0.0042609326 -0.028393112 0.021165017 0.025433578
000170 d6 0e 1e bc c0 0f fe 3c 75 53 6e 3c cf 27 a2 bb
       -0.009647092 0.03101337 0.014546265 -0.004948593
000180 ae 2a c8 bc b5 6a 1a bd 3c 1d 4c bd db d9 95 bc
       -0.024434414 -0.03769942 -0.049832568 -0.018292358
000190 2e 1e d4 3b 8d 8d 03 ba f4 1e 42 bc 61 ab e3 bb
       0.0064733243 -0.0005018346 -0.0118482 -0.00694792
0001a0 2c 18 7c 3c 8b 7a 88 3c e7 5d d9 bc 67 1c 78 bd
       0.015386622 0.016659996 -0.026534034 -0.06057396
0001b0 5f 50 84 3d ef 0a ba ba c0 2d 8f 3c 37 a5 04 3c
       0.06460642 -0.0014193932 0.01747787 0.008096031
0001c0 a6 20 23 3d 37 15 22 bc 43 42 f9 bb 4e c6 34 bc
       0.039826058 -0.009892753 -0.007606776 -0.011033608
0001d0 59 40 84 3c d9 fa 49 3c 30 de ff bb 46 2d b3 3c
       0.016143965 0.012327873 -0.0078084692 0.021872174
0001e0 b2 f8 ce ba 5b f9 a0 3c ff 72 12 ba 52 a7 3d bd
       -0.001579067 0.019650152 -0.0005586594 -0.046302147
0001f0 d2 08 ae 3c 52 b0 5a b8 bb 09 81 bc 87 35 14 bd
       0.02124444 -5.213946e-05 -0.01575171 -0.03618386
000200 67 e9 d5 bc 10 42 86 3c 8a 54 10 3d 40 0c 8c bb
       -0.026112271 0.016388923 0.035236873 -0.0042739213
000210 db 42 d3 3b b0 31 9c 3c a9 46 f3 3b fd 47 ea bb
       0.006447179 0.019066662 0.007424195 -0.007149695
000220 ec a6 f3 bc 78 a9 65 3a f5 51 d7 ba 17 ec 98 3c
       -0.02974268 0.00087609095 -0.0016427623 0.018667264
000230 52 3e d4 3c 19 62 47 b9 25 37 39 3c 0f 76 a5 3c
       0.025908623 -0.00019014663 0.011304651 0.020197896
000240 78 77 5f 3b 77 af 36 3b f0 fc d6 bc 10 54 be bb
       0.0034098309 0.0027875581 -0.026243657 -0.005808361
000250 0b df 45 bb b7 36 f4 bc cc 2c 6c 3b fc 05 c8 3c
       -0.0030192758 -0.029811246 0.0036037443 0.024416916
000260 a6 47 47 3c 8f 96 4b 3c 59 40 f4 bb 5b 69 0d bd
       0.012163078 0.012426033 -0.00745396 -0.034524303
000270 f0 7b 5f bd bc ce 75 bb b9 c5 86 bc dd b7 00 bc
       -0.054561555 -0.0037507256 -0.016451703 -0.007856336
000280 9e e2 46 3d 1e 38 36 bc 34 0d 26 3c e9 bf fa bb
       0.048555963 -0.011121778 0.010134984 -0.007652272
000290 2f 47 c7 bc 3b a7 ab 3c 8e 64 9d bc 1b 5d 64 3b
       -0.024325935 0.020953765 -0.019212987 0.0034845534
0002a0 60 fc 9f bc b9 27 47 bd fc d1 6a bb b0 b6 ce 3b
       -0.019529521 -0.048621867 -0.0035830727 0.006308399
0002b0 1c 31 a9 3b 82 12 3e bc 55 ea b1 3a d2 ce c2 bc
       0.005163325 -0.011601092 0.0013573865 -0.02378026
0002c0 ac 0c 1a bb ac a5 dc 3c 96 d7 1b 3a 43 7e 99 bc
       -0.0023506088 0.026934467 0.00059449056 -0.018736964
0002d0 74 fc a5 3c 37 eb a4 3c b9 85 c5 3b 49 6e 40 3c
       0.02026198 0.02013169 0.006027904 0.011745044
0002e0 07 e1 e3 3b d2 94 29 bc 69 98 f8 3c 70 2d 45 bc
       0.0069543156 -0.010350423 0.030346112 -0.012034759
0002f0 12 7c f4 bb 29 9c cd bc f4 ba d1 3b 80 5f 2f 3d
       -0.0074610794 -0.025098877 0.0064004604 0.042815685
000300 17 4b a6 ba 45 5c 20 3b 8f 3e f3 ba 54 22 1b 3d
       -0.0012687173 0.002446906 -0.0018558073 0.037874535
000310 81 93 3f bc ab 4b 85 bc a0 b4 e9 3b a9 f5 1e 3d
       -0.0116928825 -0.016271433 0.007132128 0.0388085
000320 75 c3 0e 3a ec 8d 98 bc 84 65 0c bc 00 7e 50 3c
       0.00054459955 -0.018622361 -0.008569125 0.012725353
000330 86 40 93 3c 06 80 0d 3a 3d 0a 51 bc 12 0e 68 3a
       0.017975103 0.00053978 -0.012758789 0.00088521943
000340 02 df be 3c f2 b7 b8 3c 41 bc bb 3c d8 6b bc bc
       0.023299698 0.02254865 0.022916915 -0.023000643
000350 ef f9 e1 ba b5 08 43 bc 84 12 a4 bc dd 4e cd bc
       -0.0017240624 -0.011903931 -0.02002836 -0.025062019
000360 65 d2 ec 3a 1e 8b 6f bc 24 ac 46 3c 35 8b 80 3d
       0.0018068074 -0.0146205705 0.012126002 0.06276552
000370 ac a3 83 bc 1d eb 85 3c f2 ed 10 bc 93 6a 71 bb
       -0.016069256 0.016347462 -0.008845793 -0.0036837205
000380 59 e2 ed bc 95 b7 52 ba 52 cb ac bb 5e 7a ca 3c
       -0.029038595 -0.000803822 -0.005273261 0.024716552
000390 bc 84 5b bc 05 fb 1f 39 0b 78 04 3b f7 ea 0b bc
       -0.013398346 0.00015256934 0.0020213153 -0.008539907
0003a0 5b 50 d2 3b 17 02 49 3c 83 3d 92 bb 30 b0 b0 bc
       0.0064182705 0.012268565 -0.004462899 -0.021568388
0003b0 e7 40 90 3b 6f 07 4d bc 74 0d 8f 3a 19 b2 61 3b
       0.004402268 -0.012513979 0.0010914044 0.003443843
0003c0 e5 3c 55 3c bb 39 30 bd 8f 89 24 3c 40 be b4 bb
       0.013015007 -0.043023806 0.010042562 -0.0055158436
0003d0 ab 3b cf bb 79 09 27 3a f7 3f ca ba f3 4a de bc
       -0.0063242516 0.0006371956 -0.001543044 -0.027135348
0003e0 d7 a1 75 3c 5c 39 ed bc d2 2f 84 bb 30 cf 1c bd
       0.014992199 -0.028958015 -0.004034021 -0.038283527
0003f0 a7 fe 95 bc 1d a4 e0 bc c2 05 97 3b 84 46 80 3c
       -0.018309904 -0.027422005 0.0046088407 0.015658624

transformer.h.0.attn.c_attn.bias f4 [96]
000000 00 00 00 00 00 00 00 00 00 00 00 00 00 00 00 00
       0.0 0.0 0.0 0.0
000010 00 00 00 00 00 00 00 00 00 00 00 00 00 00 00 00
       0.0 0.0 0.0 0.0
000020 00 00 00 00 00 00 00 00 00 00 00 00 00 00 00 00
       0.0 0.0 0.0 0.0
000030 00 00 00 00 00 00 00 00 00 00 00 00 00 00 00 00
       0.0 0.0 0.0 0.0
000040 00 00 00 00 00 00 00 00 00 00 00 00 00 00 00 00
       0.0 0.0 0.0 0.0
000050 00 00 00 00 00 00 00 00 00 00 00 00 00 00 00 00
       0.0 0.0 0.0 0.0
000060 00 00 00 00 00 00 00 00 00 00 00 00 00 00 00 00
       0.0 0.0 0.0 0.0
000070 00 00 00 00 00 00 00 00 00 00 00 00 00 00 00 00
       0.0 0.0 0.0 0.0
000080 00 00 00 00 00 00 00 00 00 00 00 00 00 00 00 00
       0.0 0.0 0.0 0.0
000090 00 00 00 00 00 00 00 00 00 00 00 00 00 00 00 00
       0.0 0.0 0.0 0.0
0000a0 00 00 00 00 00 00 00 00 00 00 00 00 00 00 00 00
       0.0 0.0 0.0 0.0
0000b0 00 00 00 00 00 00 00 00 00 00 00 00 00 00 00 00
       0.0 0.0 0.0 0.0
0000c0 00 00 00 00 00 00 00 00 00 00 00 00 00 00 00 00
       0.0 0.0 0.0 0.0
0000d0 00 00 00 00 00 00 00 00 00 00 00 00 00 00 00 00
       0.0 0.0 0.0 0.0
0000e0 00 00 00 00 00 00 00 00 00 00 00 00 00 00 00 00
       0.0 0.0 0.0 0.0
0000f0 00 00 00 00 00 00 00 00 00 00 00 00 00 00 00 00
       0.0 0.0 0.0 0.0
000100 00 00 00 00 00 00 00 00 00 00 00 00 00 00 00 00
       0.0 0.0 0.0 0.0
000110 00 00 00 00 00 00 00 00 00 00 00 00 00 00 00 00
       0.0 0.0 0.0 0.0
000120 00 00 00 00 00 00 00 00 00 00 00 00 00 00 00 00
       0.0 0.0 0.0 0.0
000130 00 00 00 00 00 00 00 00 00 00 00 00 00 00 00 00
       0.0 0.0 0.0 0.0
000140 00 00 00 00 00 00 00 00 00 00 00 00 00 00 00 00
       0.0 0.0 0.0 0.0
000150 00 00 00 00 00 00 00 00 00 00 00 00 00 00 00 00
       0.0 0.0 0.0 0.0
000160 00 00 00 00 00 00 00 00 00 00 00 00 00 00 00 00
       0.0 0.0 0.0 0.0
000170 00 00 00 00 00 00 00 00 00 00 00 00 00 00 00 00
       0.0 0.0 0.0 0.0

transformer.h.0.attn.c_proj.weight f4 [32, 32]
000000 3b 5b f8 3b a5 f0 1c 3b bc d2 5b 3d 0f a9 d3 3c
       0.007579235 0.0023947146 0.05366777 0.02583745
000010 49 cb b3 bc 26 9d a4 bb 93 69 af 3c 00 a6 c1 bc
       -0.02194752 -0.0050236164 0.021412646 -0.023638725
000020 8d ee 09 bd 61 4f 49 bc 17 9a 07 bc 3b b7 52 3b
       -0.033674765 -0.012286992 -0.008276484 0.003215267
000030 8b aa 99 3c be 73 f9 bc 3c f9 a3 3c ed 37 80 3c
       0.018758079 -0.030450698 0.020016305 0.015651667
000040 a6 ac 0f 3c 7d 3b 2e bc 76 28 17 3c 90 26 eb 3a
       0.00876919 -0.0106343 0.009225955 0.001794057
000050 60 09 5f bc f7 d5 e0 bb 34 26 83 3c ea 94 fb 3c
       -0.013613075 -0.006861444 0.016009428 0.030710656
000060 cd cb 86 bb ec ef d2 bc 0e af 8d bb 17 5c 55 3a
       -0.0041136504 -0.02574917 -0.0043238467 0.00081390276
000070 3d ea 6f 3c 5f 71 0f bd cc 49 84 ba 4c 29 d9 3c
       0.014643249 -0.03502023 -0.0010092794 0.02650895
000080 e9 e9 2c 3b 87 cc f2 bc 84 15 0b 3c 85 2b 5f 3c
       0.0026384539 -0.029638542 0.008489016 0.013621216
000090 39 78 c1 3c a2 6e 4c bc 66 14 45 bd 09 1b 84 3c
       0.023616897 -0.012477549 -0.048115157 0.016126173
0000a0 f0 0e c8 3c 97 bc ce bb f0 bf ad bc a9 b1 c0 bc
       0.024421185 -0.0063091028 -0.021209687 -0.023522215
0000b0 44 79 cc bc 82 61 8b bc 0d d5 b6 ba 17 ca 49 3d
       -0.024960168 -0.017014269 -0.0013948992 0.049264994
0000c0 66 b9 05 bc 21 d1 2b 3c f3 82 b2 3b 22 70 82 3d
       -0.008161878 0.010486872 0.0054477393 0.06369044
0000d0 b5 1c 58 bb 46 ce d4 bc ce f9 9c 3c be 0d 9b bc
       -0.0032976095 -0.025977265 0.019162085 -0.018927451
0000e0 66 5a d6 3a d3 d9 5b 3c 6c 78 e3 3c d7 b0 05 3c
       0.0016353845 0.013418633 0.027767383 0.008159838
0000f0 b4 db 2a bc f9 57 40 3d 69 b1 2d bc 07 12 8b bc
       -0.010428358 0.046958897 -0.01060138 -0.01697637
000100 09 da dc 3b e0 fb 1c bc 95 f1 40 3b 7c d4 a0 bb
       0.006739859 -0.009581536 0.002944087 -0.0049081426
000110 c2 31 53 bc bc 29 45 bc b2 a7 9f 3c 4f 9e b5 bc
       -0.012890281 -0.012033876 0.019489143 -0.022170214
000120 ef bc 83 bc cf 12 46 bc f4 dc 23 bc 19 6b 70 3c
       -0.016081301 -0.012089445 -0.01000141 0.014673972
000130 f3 40 8e bc 58 9e 4d 3c 98 f6 c1 bb f3 32 9f bc
       -0.017364955 0.012549959 -0.005919289 -0.019433474
000140 d4 48 6c 3c 6f 94 71 3c 61 44 c1 3b ab c3 c2 bb
       0.01442166 0.014744862 0.005898044 -0.0059437356
000150 f3 45 b2 bc 97 ac ec 3c f5 d3 8a bb ea 44 f7 bb
       -0.02176187 0.028890891 -0.004236693 -0.007546057
000160 78 68 32 bc 7f 0f 14 3c 67 87 48 b9 ea 0a c0 bc
       -0.010889165 0.009036898 -0.00019123928 -0.023442704
000170 f0 8e a0 bc a0 0b a0 bc 2d d6 39 3d 93 61 82 3c
       -0.019599408 -0.019536793 0.04537027 0.015915668
000180 47 01 95 bc 15 51 c8 ba 44 d5 1e bc ca b5 0e 3c
       -0.018189086 -0.0015282953 -0.009694401 0.008710334
000190 d2 e5 2e bb e1 69 6d bb 12 e4 9e bc 53 31 af bc
       -0.0026687277 -0.0036226439 -0.019395862 -0.021385824
0001a0 ae 70 68 3d 34 b9 18 bc 7d a9 37 3c cd 0c 03 b9
       0.056748085 -0.0093215 0.011209843 -0.00012497902
0001b0 2b 1c 80 3b 6a 00 f8 3b 53 83 72 3c 14 b7 17 bd
       0.003909608 0.0075684087 0.014801818 -0.03703983
0001c0 d9 f6 7a 39 bb c7 71 bc fd 3b ce 3c 29 ca 46 bd
       0.00023933816 -0.014757092 0.025175089 -0.04853264
0001d0 f6 6d 21 3d b0 73 8f bc ad 17 17 bd dc 51 68 bc
       0.039411508 -0.017511219 -0.036887813 -0.014179673
0001e0 53 63 ab b9 57 aa 3f 3c 16 96 06 3c 4b 37 1e 3b
       -0.00032689664 0.011698327 0.008214494 0.0024141844
0001f0 f4 d3 9b bc 50 b6 18 3a 40 ea 1f 3c cf 7a 90 ba
       -0.019021966 0.00058255065 0.009760439 -0.0011022928
000200 61 c6 2e 3c a9 12 29 bd 5b e4 5f 3c 53 98 1e 3d
       0.010667414 -0.04127756 0.013665284 0.038719486
000210 a3 d9 9f bc ff a3 1a 3b fe 15 f0 bc ab ea 23 ba
       -0.019512957 0.0023596284 -0.029307362 -0.0006252925
000220 bd d4 ba bc 2b 56 4a bc 77 b7 86 bc 2a 47 e9 bc
       -0.02280652 -0.012349646 -0.016444905 -0.028476316
000230 74 26 1f bc 1d 4d 33 ba a0 71 74 3c 57 20 a8 3b
       -0.009713758 -0.0006839799 0.014919668 0.0051308083
000240 8b 7c 03 bd 32 fe cb 3c 12 f7 c9 bc 6f 61 8c bb
       -0.032101195 0.024901483 -0.024653945 -0.004284076
000250 b4 47 0c bb 82 df b4 bc b0 d7 24 bb c2 f9 b8 bc
       -0.0021405043 -0.022079233 -0.0025152974 -0.022580031
000260 a2 c6 fe 3b 53 82 02 3d a1 b4 99 bb ef 67 62 3c
       0.0077751437 0.031862568 -0.004690722 0.013818725
000270 42 5b 4f 3d 95 48 b3 bc 73 d8 c3 bc bd e1 b9 39
       0.05062414 -0.021885196 -0.023906922 0.00035454138
000280 46 12 7a bc 79 f8 28 bd a6 9c a5 bb be 3c 3c bd
       -0.015263146 -0.041252587 -0.0050540743 -0.045956366
000290 9d 8e d8 bc 46 04 86 3c ef 01 8e bc 74 a9 f5 bc
       -0.02643519 0.01635946 -0.017334906 -0.029988028
0002a0 4b 99 31 3c a3 e6 13 3b 94 47 d0 bc 7d 1d cd bc
       0.010839771 0.002256789 -0.025424756 -0.025038475
0002b0 34 71 33 3c 44 83 97 bc b7 bf 0c 3c e7 3a 8d bc
       0.010952283 -0.01849521 0.00859063 -0.01724
0002c0 c6 84 c9 bb 0e 22 46 bd 80 8a cc bb de f6 c5 bc
       -0.006149861 -0.04837232 -0.0062420964 -0.024165567
0002d0 b5 90 ea bc 02 42 d3 38 0a 61 5d bd 7b 17 3b 3c
       -0.028633455 0.00010073559 -0.05404762 0.011419172
0002e0 61 3f be bb 17 7c 93 3c cd 88 17 bb fb 06 a1 bb
       -0.005805895 0.018003507 -0.002312231 -0.004914162
0002f0 55 46 71 bc b2 69 8e bc c1 bb 2d 3a a9 b8 83 bc
       -0.014726241 -0.017384384 0.0006627404 -0.016079264
000300 f3 ee 5f bc 84 09 06 3d 4d c8 18 3d b4 48 32 3c
       -0.01366781 0.03272392 0.037300397 0.010881592
000310 d0 18 e8 3c 82 a0 c9 3c 2e 51 81 3c 2e 28 55 3c
       0.028332144 0.024612669 0.01578578 0.013010068
000320 27 97 5c 3c f5 83 3d bc 34 13 f3 bc db 51 61 bc
       0.013463772 -0.011567106 -0.029672243 -0.013752426
000330 cb ad 98 bc ca 6c f3 bc 82 a0 00 3a 75 32 e8 3c
       -0.018637558 -0.02971496 0.000490673 0.028344372
000340 4a 6b 0b bc de 27 2f 3c 04 fd 0b 3d 10 d1 01 3c
       -0.008509466 0.010690657 0.03417684 0.00792338
000350 a5 5a fa 3c 1d e6 90 bc 79 33 53 3c e9 0e c0 3a
       0.0305608 -0.017687852 0.01289069 0.0014652881
000360 45 21 1f bd 5c d0 b5 3b 0d 67 02 bc c2 d3 c4 bc
       -0.038850088 0.00554852 -0.0079591395 -0.024026755
000370 2a f5 e0 3c a6 06 8b 3b 32 d5 61 3c e0 8c 21 bb
       0.027460653 0.004242736 0.01378374 -0.0024650618
000380 45 76 cf bc a4 bb 27 bd 59 61 20 ba 1e 6d 78 3a
       -0.02532495 -0.040950432 -0.00061180216 0.0009476709
000390 42 1e 1d bc 2f c0 ec ba 26 11 20 3c 35 00 79 3c
       -0.009589734 -0.0018062646 0.0097697135 0.015197803
0003a0 04 93 9a 3c 62 a0 b5 b9 c0 1d b1 3c c0 2a af bc
       0.01886893 -0.00034642505 0.021620631 -0.02138269
0003b0 65 45 92 3c d0 8e 49 bc 92 f1 f9 3b fd ef ae bb
       0.017855356 -0.012302116 0.0076276744 -0.0053386674
0003c0 0a e9 bc 3a ab 1f 38 3c 06 0f 5b 3c 9d 50 76 3c
       0.0014412713 0.011238019 0.013370281 0.015033868
0003d0 c6 29 1d bd f9 53 60 3c 49 e2 69 3b 52 c5 a7 39
       -0.038369916 0.013691896 0.0035687855 0.00031999737
0003e0 cc 3a 5b bc 27 41 c7 bc c2 3e e8 3b bb 01 31 bc
       -0.0133807175 -0.02432306 0.0070875594 -0.010803635
0003f0 ba 7c 01 3b 0e fc 1e 3c 12 63 70 3c 6b c6 39 ba
       0.001975818 0.009703649 0.014672058 -0.00070867565

transformer.h.0.mlp.c_fc.weight f4 [32, 128]
000000 ce 73 d4 3a 73 a8 c2 bc cd b8 a4 ba 97 e9 01 bb
       0.0016208829 -0.023761963 -0.0012567282 -0.0019823068
000010 9b d8 66 3c 19 9a 3c 3c 18 0a cb 3c f9 89 bc bc
       0.014089729 0.011511349 0.024785087 -0.02301501
000020 d8 96 e9 3b 5d 4b b8 ba e0 13 01 bc 34 7e ea bb
       0.0071285777 -0.0014060546 -0.007878274 -0.007156158
000030 a3 de 08 bb 4b 7f a6 3c e7 65 48 bd b5 e9 59 3c
       -0.0020884655 0.02032437 -0.048925307 0.013300349
000040 0f ea f1 3a 47 a7 74 3c 39 ce e2 3b 47 35 14 bd
       0.0018456596 0.01493246 0.0069215563 -0.03618362
000050 82 dd 2a bd e9 b8 0b 3d 01 ca 45 bb 18 9c 20 3d
       -0.041715153 0.03411189 -0.0030180218 0.039211363
000060 09 d7 d7 ba 75 cb 98 bc 87 ff b4 bb d4 a3 b5 bb
       -0.0016467284 -0.018651703 -0.0055236253 -0.0055432115
000070 50 c0 55 3c e1 12 d0 3b 80 d6 ad bc f9 29 05 3a
       0.013046339 0.006349907 -0.021220446 0.0005079802
000080 02 21 65 3c d7 42 de 3c ea 2f 0d bd c2 7d 0c bc
       0.01398492 0.027131481 -0.034469523 -0.008574905
000090 9e 4d 20 bc 22 e6 e4 3b 38 83 39 bc f8 35 4c 3c
       -0.00978413 0.006985442 -0.011322789 0.012464039
0000a0 c5 f5 29 bd 9b 6f cc bb 3b af 00 3d 6f cf aa 3a
       -0.04149415 -0.0062388903 0.031417113 0.0013031791
0000b0 02 1b c0 ba 72 bc c6 bc 7b 0f aa 3c a3 13 75 3c
       -0.0014656486 -0.02425978 0.020759335 0.014958295
0000c0 b7 13 de ba 0c 4f fd bc aa e3 45 bc 1e 07 64 3c
       -0.0016943131 -0.030921482 -0.012078205 0.0139177125
0000d0 f9 37 a8 3c 44 8b 2f 3d 21 99 97 bb cd 31 0b 3b
       0.020534502 0.042857423 -0.0046264087 0.00212394
0000e0 2a 92 7e bb 73 38 c8 3c 2f 11 46 bc 77 49 c1 bc
       -0.0038844445 0.02444098 -0.012089058 -0.023594601
0000f0 db f2 ab 39 d2 b5 23 bc 12 97 eb 3c 3b 46 3a ba
       0.00032796603 -0.00999208 0.02875856 -0.0007105802
000100 f6 ec 8f bb 5d 92 11 bc bb cf 2b bb 07 a2 bf bb
       -0.0043922616 -0.008884993 -0.0026216346 -0.0058481726
000110 6e 65 60 3c b3 b9 db bb 5e 02 cf 3b dd 35 69 3c
       0.013696058 -0.0067054867 0.006317421 0.014234033
000120 56 3f 96 bb 90 7b e5 3c 28 f6 22 3d e7 12 5d 3c
       -0.004585187 0.02801302 0.039785534 0.013493276
000130 8e 94 19 bc c4 3c 30 3b 57 82 14 3c ca d8 b1 bc
       -0.009373797 0.0026891688 0.009064279 -0.021709818
000140 8e 2b 20 3d 7b 1e f2 ba e6 76 f4 b9 4b f4 8e bc
       0.039104037 -0.0018472219 -0.00046627893 -0.017450472
000150 06 30 1f 3d 29 f9 7b 3c 57 0f 69 bc 94 c6 5f bc
       0.038864158 0.015379229 -0.014224849 -0.013658185
000160 8d be 00 3c 23 fb 82 3c 5b e6 81 3c 1b 7d 58 bc
       0.007857931 0.015988892 0.015856912 -0.013213421
000170 98 2c a7 3c 79 96 5d 39 cc 58 59 3b eb 8e 15 bc
       0.020407006 0.00021132258 0.00331645 -0.009128313
000180 b3 5a 7e bc c6 41 f1 3c dd 90 18 3d f1 a5 8f bc
       -0.015524554 0.029450309 0.037247527 -0.017535182
000190 77 c0 a7 bc f8 e3 05 bc 74 54 72 bd ad 84 ae bb
       -0.020477517 -0.008172028 -0.059162572 -0.005325875
0001a0 a6 85 96 3c 01 f8 1b 3c 5e 21 ea bb cf eb b0 ba
       0.018374275 0.009519578 -0.007145091 -0.0013498011
0001b0 ec 2f a1 bc 72 29 6e bb 3c 5c af bc fb d6 23 3d
       -0.019676171 -0.0036340621 -0.021406285 0.039999943
0001c0 4f 90 c9 3c 4b cd 2d 3d f9 34 47 bb ce b4 d5 3c
       0.024604945 0.04243211 -0.0030396564 0.026087191
0001d0 dc ee 8c bc 61 bb 4f bc ea 9d dd 3c 9b 4f d0 bc
       -0.01720374 -0.012678952 0.027052838 -0.025428584
0001e0 f9 8b 26 3c 0a 44 23 3d 94 ff 4d b8 d8 bf fa 3b
       0.010165208 0.03985981 -4.9113834e-05 0.007652264
0001f0 dc 87 36 bb 6d 3c 80 bc 85 1d 1a 3c d0 1d 3e ba
       -0.0027851975 -0.015653813 0.009406452 -0.0007252367
000200 f5 06 9b bc ca 73 fc bb 79 d1 84 bb de 58 35 3c
       -0.018924216 -0.007704233 -0.0040532914 0.011068551
000210 6f 55 c3 bc ae 81 1f bc 6d 29 46 bc 00 a2 a2 bc
       -0.023844449 -0.009735508 -0.012094838 -0.019852638
000220 8a 95 a6 bc 64 97 14 bc 8c 91 5c 3c 94 13 19 3d
       -0.020334978 -0.009069297 0.013462435 0.037372187
000230 07 59 38 3c d9 3c 9c 3b 89 4f 35 3c 23 de 6c bb
       0.0112516945 0.004767996 0.011066326 -0.0036143146
000240 01 47 fa bc 27 26 26 bc f9 80 09 3d 7b fa d1 bc
       -0.030551435 -0.010140932 0.033570264 -0.025632134
000250 b5 82 b7 3c 36 9e 93 3c 9e e7 16 bc 8f 5b 10 bd
       0.022401193 0.018019777 -0.009210495 -0.035243567
000260 5b 05 1f bd 7e 90 cc 3a 33 ae 5e bc 2f 54 78 bc
       -0.038823467 0.0015607027 -0.013591337 -0.01515679
000270 ab ed 5c bb 2f be 58 bd 6d 1f 08 bd 14 c9 c2 3c
       -0.0033710997 -0.05291575 -0.033233095 0.023777522
000280 d3 6c 62 3c 9d b5 9c bc 1b cf 01 3c c2 ce d5 3b
       0.013819891 -0.019129569 0.007922913 0.0065248916
000290 65 c0 ca 3a df 00 0d 3b 73 5d 5b bc 7e 08 38 3c
       0.0015468715 0.0021515412 -0.013388979 0.011232493
0002a0 4f a4 02 ba c1 59 3c 3c 82 f2 58 3d c5 8d aa 3c
       -0.00049835903 0.011496008 0.05296565 0.020819554
0002b0 a9 8c 66 bb d7 23 8e bb dc 06 4d 3d c7 bb fa bc
       -0.0035179055 -0.0043377685 0.05005537 -0.030607117
0002c0 87 84 84 bb 8b 08 88 3c 94 99 30 3c 25 5d 03 3d
       -0.004044119 0.016605636 0.010778803 0.03207125
0002d0 7c c0 56 3d 14 6c 33 bc f2 d1 ad 3c 4f 46 45 3a
       0.05242966 -0.010951061 0.021218274 0.00075254304
0002e0 be 9c 99 3c 40 69 7b 3b f5 88 33 3b 8c b3 65 3c
       0.018751498 0.0038362294 0.0027394865 0.014019858
0002f0 97 1a 7d bc 0b 90 ff b7 d5 5f 03 3c d3 34 0c 3d
       -0.015448234 -3.0465444e-05 0.008018454 0.034230065
000300 89 6e 8a bc f0 37 6b 3b 79 49 ab bc b9 27 5b 3c
       -0.01689841 0.0035891496 -0.020909058 0.01337617
000310 58 46 3f bd 55 da 64 bc 4c e6 ec bc 13 c0 c4 bb
       -0.046697944 -0.01396807 -0.028918408 -0.0060043423
000320 34 af ba bc 58 86 d8 bc b9 e9 07 bb b9 1b 96 bc
       -0.022788621 -0.026431248 -0.0020738675 -0.018323766
000330 37 82 06 3d c1 a7 b0 3c c2 d6 f5 ba ab bf 3f bb
       0.032839026 0.021564366 -0.0018756019 -0.002925853
000340 6d b0 00 bc 77 38 63 3c c7 aa 3e bc b9 0f 26 bb
       -0.007854563 0.013868443 -0.011637396 -0.0025338961
000350 79 6e 09 bc e7 65 84 ba a0 f6 56 bc 55 2b f2 3c
       -0.008388155 -0.001010117 -0.013120323 0.029561678
000360 f0 d3 40 3c b7 ca 5d b9 5b a7 62 bc 8d 76 96 3c
       0.01176928 -0.0002115172 -0.013833846 0.018367076
000370 6f d6 e9 bc 20 78 31 3c 2d 56 04 bc 82 b1 1a bd
       -0.028544633 0.010831863 -0.0080771865 -0.03776694
000380 ab 65 87 bc d4 0e 95 3c 8b 93 d7 bc 48 a7 10 bd
       -0.016527971 0.018195547 -0.026315471 -0.03531578
000390 e2 4a e9 3b 50 80 75 3c 40 8a bb 3b 7d b6 4a 3c
       0.0071195224 0.014984205 0.005723268 0.01237261
0003a0 78 bc b8 3c 62 28 ce bc 88 7d 88 3c 56 3b 11 3c
       0.022550806 -0.02516574 0.01666142 0.008864244
0003b0 81 1d 67 b9 57 11 fc 3b 5e 30 49 bc 6a bd c8 3c
       -0.00022040868 0.0076924968 -0.012279598 0.024504382
0003c0 64 17 24 3c c6 5b 82 3c 94 b3 ee bb 0d fa a3 3c
       0.010015342 0.015912902 -0.007284591 0.020016694
0003d0 10 a7 25 3d ef e8 89 3c e2 f8 ff 3b 86 01 d3 ba
       0.040442526 0.016834704 0.0078116516 -0.0016098476
0003e0 cd 74 1c 3c 4a 6d f0 3c a7 03 f7 3a c2 b6 9c 3b
       0.009549332 0.029348988 0.0018845693 0.0047825286
0003f0 cf 74 37 3b 12 4f 6f 3c ee 3f 68 3c 80 e4 88 3a
       0.0027993207 0.014606254 0.014175398 0.0010444075

transformer.h.0.mlp.c_fc.bias f4 [128]
000000 00 00 00 00 00 00 00 00 00 00 00 00 00 00 00 00
       0.0 0.0 0.0 0.0
000010 00 00 00 00 00 00 00 00 00 00 00 00 00 00 00 00
       0.0 0.0 0.0 0.0
000020 00 00 00 00 00 00 00 00 00 00 00 00 00 00 00 00
       0.0 0.0 0.0 0.0
000030 00 00 00 00 00 00 00 00 00 00 00 00 00 00 00 00
       0.0 0.0 0.0 0.0
000040 00 00 00 00 00 00 00 00 00 00 00 00 00 00 00 00
       0.0 0.0 0.0 0.0
000050 00 00 00 00 00 00 00 00 00 00 00 00 00 00 00 00
       0.0 0.0 0.0 0.0
000060 00 00 00 00 00 00 00 00 00 00 00 00 00 00 00 00
       0.0 0.0 0.0 0.0
000070 00 00 00 00 00 00 00 00 00 00 00 00 00 00 00 00
       0.0 0.0 0.0 0.0
000080 00 00 00 00 00 00 00 00 00 00 00 00 00 00 00 00
       0.0 0.0 0.0 0.0
000090 00 00 00 00 00 00 00 00 00 00 00 00 00 00 00 00
       0.0 0.0 0.0 0.0
0000a0 00 00 00 00 00 00 00 00 00 00 00 00 00 00 00 00
       0.0 0.0 0.0 0.0
0000b0 00 00 00 00 00 00 00 00 00 00 00 00 00 00 00 00
       0.0 0.0 0.0 0.0
0000c0 00 00 00 00 00 00 00 00 00 00 00 00 00 00 00 00
       0.0 0.0 0.0 0.0
0000d0 00 00 00 00 00 00 00 00 00 00 00 00 00 00 00 00
       0.0 0.0 0.0 0.0
0000e0 00 00 00 00 00 00 00 00 00 00 00 00 00 00 00 00
       0.0 0.0 0.0 0.0
0000f0 00 00 00 00 00 00 00 00 00 00 00 00 00 00 00 00
       0.0 0.0 0.0 0.0
000100 00 00 00 00 00 00 00 00 00 00 00 00 00 00 00 00
       0.0 0.0 0.0 0.0
000110 00 00 00 00 00 00 00 00 00 00 00 00 00 00 00 00
       0.0 0.0 0.0 0.0
000120 00 00 00 00 00 00 00 00 00 00 00 00 00 00 00 00
       0.0 0.0 0.0 0.0
000130 00 00 00 00 00 00 00 00 00 00 00 00 00 00 00 00
       0.0 0.0 0.0 0.0
000140 00 00 00 00 00 00 00 00 00 00 00 00 00 00 00 00
       0.0 0.0 0.0 0.0
000150 00 00 00 00 00 00 00 00 00 00 00 00 00 00 00 00
       0.0 0.0 0.0 0.0
000160 00 00 00 00 00 00 00 00 00 00 00 00 00 00 00 00
       0.0 0.0 0.0 0.0
000170 00 00 00 00 00 00 00 00 00 00 00 00 00 00 00 00
       0.0 0.0 0.0 0.0
000180 00 00 00 00 00 00 00 00 00 00 00 00 00 00 00 00
       0.0 0.0 0.0 0.0
000190 00 00 00 00 00 00 00 00 00 00 00 00 00 00 00 00
       0.0 0.0 0.0 0.0
0001a0 00 00 00 00 00 00 00 00 00 00 00 00 00 00 00 00
       0.0 0.0 0.0 0.0
0001b0 00 00 00 00 00 00 00 00 00 00 00 00 00 00 00 00
       0.0 0.0 0.0 0.0
0001c0 00 00 00 00 00 00 00 00 00 00 00 00 00 00 00 00
       0.0 0.0 0.0 0.0
0001d0 00 00 00 00 00 00 00 00 00 00 00 00 00 00 00 00
       0.0 0.0 0.0 0.0
0001e0 00 00 00 00 00 00 00 00 00 00 00 00 00 00 00 00
       0.0 0.0 0.0 0.0
0001f0 00 00 00 00 00 00 00 00 00 00 00 00 00 00 00 00
       0.0 0.0 0.0 0.0

transformer.h.0.mlp.c_proj.weight f4 [128, 32]
000000 94 38 83 bb d4 c7 5c 3b 2e 75 13 3d 9b 07 7f 3b
       -0.0040045474 0.0033688443 0.036000423 0.0038914445
000010 b5 2e ed 3b 83 53 7f 3b 12 53 8e 3c b5 19 38 3a
       0.007238234 0.003895969 0.017373595 0.00070228736
000020 4d c5 22 3d b7 08 16 3d bb 06 25 3c 0d 6e 3e 3c
       0.039738942 0.036629405 0.010072405 0.011622918
000030 e4 8b 17 3d f5 04 e2 bb 3b 73 4c 3c 33 dc a6 bb
       0.036998644 -0.0068975636 0.012478645 -0.0050921678
000040 06 f2 fe 3c 5b a4 09 3c 90 ec 94 3c c5 a4 f1 ba
       0.031121265 0.008401002 0.018179208 -0.0018435946
000050 79 32 29 3c 84 78 a1 bc 01 5e e0 bb bb 97 a1 3c
       0.010326975 -0.019710787 -0.0068471436 0.019725671
000060 dc 2f e8 3c 57 01 15 3d 1c 80 f0 38 d8 74 d9 3c
       0.028343134 0.03637823 0.00011467954 0.026544973
000070 34 d7 96 bc bc 05 ad bc fb dd 72 3a 2e 9a af 3c
       -0.018413164 -0.021120898 0.0009264645 0.021435823
000080 66 4a 4f 3c 4b 21 1a 3d 61 21 e0 3c 13 10 9d 3c
       0.012652015 0.037629407 0.027359666 0.019172704
000090 e9 8f cb ba a7 8c 6e bc 8d 63 94 bc db e1 19 3c
       -0.001553056 -0.014559901 -0.018113876 0.009392227
0000a0 ca 10 35 b9 f8 5d e2 bb 2d 0e 14 bc 26 d3 b9 3c
       -0.0001726776 -0.0069081746 -0.009036583 0.022683691
0000b0 86 83 18 3d c6 e9 43 3d fe 5e aa b9 eb 9b 14 3d
       0.037234806 0.047830366 -0.000324957 0.036281507
0000c0 ee 49 91 3c 9b 80 53 ba 47 f0 69 3c 5d 5e 01 bd
       0.017735448 -0.0008068175 0.014278478 -0.031584132
0000d0 b2 5a 31 bd 69 fe e0 3c 7f a9 0e bc 4b 77 59 3c
       -0.043299384 0.027465062 -0.008707403 0.013273071
0000e0 ed 69 3c bb b2 e2 1d 3c 0b 6d b8 ba b9 a5 2f bd
       -0.002874966 0.009636568 -0.0014070583 -0.042882655
0000f0 b6 a0 99 3c 09 67 0e bb 19 43 c2 3a bc 41 2e 3d
       0.01875339 -0.0021728894 0.0014821022 0.042543158
000100 65 78 a8 ba fc 92 c4 3b 47 af 6a bc ce 1d a7 3a
       -0.0012853263 0.005998967 -0.014324016 0.0012749971
000110 3a e0 91 3c 92 04 2c bb a9 81 a2 bc 82 e0 90 3c
       0.017807115 -0.0026247841 -0.019837217 0.017685179
000120 6f 5f 5c 3d b0 d9 72 3c a1 06 53 bc b2 89 2f 3c
       0.05380195 0.014822409 -0.012879998 0.010713981
000130 fd 1e e1 3c db 85 75 3c 59 f4 bd 3c 5b 87 e2 3a
       0.027480597 0.014985527 0.023187803 0.0017282771
000140 38 9f 2c bd 8b 1f 68 3c 8f 46 7b bc 61 93 18 3c
       -0.04214403 0.014167677 -0.015336647 0.009312482
000150 45 7c 18 3b 94 dd 83 bb 9d 09 82 3c 30 79 d8 bc
       0.002326743 -0.004024217 0.015873725 -0.026424974
000160 d0 c1 18 3d 61 c3 cb 3b 66 3e 0d 3d 12 98 cf bc
       0.03729421 0.0062183593 0.034483336 -0.025341067
000170 cf 08 82 bb 09 2a 31 bd e0 ae 01 bd eb a5 ae 3a
       -0.003968335 -0.04325298 -0.031660914 0.0013324594
000180 40 ed 98 3b a7 72 3a 3c ef d8 4c bc f3 8a 2d 3d
       0.0046669543 0.011379874 -0.012502893 0.04236884
000190 57 2d 39 bd 33 02 5d bc f4 39 a0 bc 85 4e 13 bd
       -0.045209255 -0.013489294 -0.019558884 -0.035963554
0001a0 90 c7 04 bc b3 4e 80 bc d4 33 88 bc 7c 58 54 bc
       -0.00810422 -0.015662527 -0.016626276 -0.012960549
0001b0 82 75 78 3c 35 98 d0 bb 12 95 0e 3d 7d 75 00 bd
       0.015164735 -0.0063658007 0.034810133 -0.031362046
0001c0 5f 34 07 bc be 30 56 3c 98 5b 96 bc 34 65 1b bd
       -0.008252232 0.0130731445 -0.018354222 -0.03793831
0001d0 c1 0d da 3c a9 57 3b 3c 64 86 5e bc 4d 8a c8 3b
       0.026617886 0.011434474 -0.013581846 0.0061200024
0001e0 d1 2d 08 bc d5 ab f3 3a a0 b9 8a 3b 59 a5 a0 3c
       -0.008311705 0.0018590639 0.004233554 0.019610094
0001f0 95 87 ba 3b b2 db 0f bd 59 38 3e 3a cf 39 f1 bb
       0.005692432 -0.035121627 0.0007256321 -0.0073616276
000200 4a a8 6c bb 7c 34 86 bc 08 80 9e 3c dd 76 56 3d
       -0.003611105 -0.016382448 0.01934816 0.05235945
000210 f7 01 3d 3d 2d 46 3a bc 76 29 16 bc 47 22 41 bc
       0.046144452 -0.01136927 -0.0091651585 -0.0117879575
000220 e9 8f 90 3c 5e ab a2 bb 21 53 62 bc 20 a2 8b bc
       0.017646747 -0.004964276 -0.013813765 -0.01704508
000230 46 fa 46 3c b7 b2 c4 3c f4 22 27 3c fb 29 d3 3b
       0.012144631 0.024011 0.010201205 0.0064442134
000240 25 42 97 bc 32 7b fd 3c 09 c1 c4 3c 2f 8f b0 bc
       -0.018464157 0.030942533 0.024017828 -0.02155265
000250 4d 26 8b 3c 3b e5 0b 3c 2c 3d 6b 3c c2 36 02 3d
       0.016986037 0.0085385395 0.014357846 0.031790502
000260 be 86 14 bd 0c 36 f8 3b fc 47 1d 3d ce cc c2 bc
       -0.036261313 0.0075748023 0.038398728 -0.0237793
000270 b7 cf 74 3c ca 62 ef bb a6 17 e4 3c e0 0d c1 3c
       0.014942101 -0.0073054777 0.027843308 0.023566186
000280 c7 32 7a bb 30 ca d1 3b 2e b1 b4 bc a4 e1 b0 bc
       -0.0038177238 0.0064022765 -0.022057142 -0.021591969
000290 c4 d0 08 3c 98 63 7a 3c f2 ba 8f bb 89 02 95 bc
       0.008350555 0.015282534 -0.0043862993 -0.018189685
0002a0 30 b4 7a 3b ef 65 68 bc c0 55 04 3d 04 03 4a bb
       0.0038254373 -0.014184459 0.03230834 -0.0030824551
0002b0 e2 fe 04 bd 50 82 69 3b b3 9a 89 bc 0c 59 57 3c
       -0.032469638 0.003563065 -0.0167974 0.013143789
0002c0 f9 3f f0 3c 79 6a 71 bc d4 ba 86 3c 10 3d 3e 3c
       0.02932738 -0.014734858 0.016446508 0.011611238
0002d0 cf 38 d1 3c 54 e5 51 bc 2a 3b 60 3b f7 a1 6f bb
       0.025539784 -0.012811024 0.0034214952 -0.0036565044
0002e0 e2 4f 7f 3b 10 0a 96 39 40 fd fa 3c 74 e8 23 ba
       0.0038957526 0.00028617727 0.030638337 -0.0006252595
0002f0 94 d4 48 bd 07 df 65 bc 29 e7 86 3c 6b b9 11 bd
       -0.049030855 -0.014030225 0.016467648 -0.03557722
000300 a0 1c 64 bb 18 df 13 bc 02 9e 86 3c f7 4a 0c bd
       -0.00348071 -0.009025358 0.016432766 -0.03425118
000310 c9 71 1a 3c e0 de 44 3c 5d ad 53 3c db e3 8c bc
       0.009426543 0.012016028 0.012919751 -0.017198494
000320 47 a8 86 3c ed 20 8e bc d8 80 bd bc 4b e6 4b bc
       0.016437663 -0.017349685 -0.023132727 -0.012445043
000330 e5 45 44 3c f0 41 0d bd 4d 3e 27 3c a2 8d c9 3c
       0.011979555 -0.03448671 0.010207725 0.024603669
000340 01 95 06 bb a7 f3 b4 3c 35 f0 07 3c cb 22 80 bc
       -0.002053559 0.022088839 0.008297016 -0.01564159
000350 74 af 12 3d 39 c8 c9 3b d7 2d a0 bb 21 38 9f bc
       0.035811856 0.0061579016 -0.004888277 -0.019435944
000360 66 4b 24 3c 7b 2b 61 3c a0 98 01 3d c6 0a e4 bc
       0.010027742 0.013743277 0.031639695 -0.027837168
000370 13 33 76 3b cb 35 fe bb 00 ac c8 bc 41 e2 aa 39
       0.0037567064 -0.0077578775 -0.024496078 0.000325935
000380 c4 41 01 bc d0 39 be 3b c1 10 22 bb 2d 60 8a bc
       -0.007889215 0.0058052316 -0.0024729224 -0.016891563
000390 5d ba ca bc aa bd f9 3c a2 62 7b bc f2 4d f6 bc
       -0.024747068 0.030485947 -0.01534334 -0.030066464
0003a0 60 ce dd 3c 94 2f 45 bc c0 0b 2a ba 9c 7b 34 3b
       0.027075946 -0.012035269 -0.0006486736 0.0027539497
0003b0 c9 59 c5 bc 39 d5 f4 bc 97 ad 09 ba 9c 53 b9 3c
       -0.024090664 -0.029886829 -0.0005252002 0.022622876
0003c0 a6 0d d1 3c 64 61 39 3d 46 ee 80 bb 77 c8 78 b9
       0.025519203 0.045258895 -0.0039346544 -0.00023725802
0003d0 c9 85 64 3b d7 05 df 3c 3b ca 85 bb ac 98 67 bc
       0.0034869781 0.027224464 -0.0040829456 -0.014135521
0003e0 84 70 99 bb 8a 34 d7 3b 33 7a 85 bc dd 37 2d 3c
       -0.0046826024 0.0065675424 -0.01629362 0.010572401
0003f0 1c 93 ca bb 6e e1 a7 b7 00 4c 0e ba cc 75 0f 3c
       -0.0061820876 -2.0012925e-05 -0.0005428195 0.008756112
