test/models/hf-internal-testing/tiny-random-gpt2-fp16-cuda/past.onnx (onnx, 295729 bytes, 27 tensors)

transformer.wte.weight f2 [1000, 32]
-0.02065 0.0125 -0.0289 0.01246 0.003218 0.005917 -0.02798 -0.01496
-0.01256 0.00214 0.00262 -0.001042 0.00411 0.00664 -0.002651 0.015015
0.00663 -0.00537 0.02998 0.002886 0.01558 -0.01102 0.03964 -0.01727
-0.0127 -0.014046 0.009926 -0.0604 0.002634 0.001803 -0.02995 0.01114
-0.02391 -0.01584 0.008095 -0.003431 0.02132 0.001464 -0.01156 -0.02795
-0.01127 0.003653 -0.01389 -0.02513 -0.01178 -0.0359 -0.02626 0.01478
-0.00741 0.01029 -0.01242 0.03017 -0.0006723 0.01683 -0.010414 -0.02075
-0.007545 0.004845 -0.002605 -0.004684 -0.01252 0.01101 0.02077 -0.03558
-0.00403 0.02002 0.01834 -0.01735 -0.03427 -0.0474 0.02507 -0.01538
-0.003819 0.02477 -0.01071 -0.04623 0.007496 -0.00621 0.01694 -0.02742
-0.01917 0.02235 -0.02055 0.002527 0.01692 0.00787 -0.001333 0.02614
-0.01299 0.001011 -8.94e-06 0.0003812 0.00958 0.003752 -0.01938 -0.002375
0.004738 -0.01994 0.004536 0.02538 0.04413 0.007645 -0.0177 0.0409
-0.011116 0.011185 0.003511 -0.004898 -0.01839 0.02089 -0.007603 -0.01854
0.001049 0.013695 0.005054 -0.0092 -0.01018 0.02705 0.015335 -0.03333
0.02101 0.02168 0.006157 0.01166 0.002445 -0.000978 -0.00299 0.004814
0.00961 -0.01613 -0.01259 -0.005478 0.007404 -0.01773 -0.02211 0.0019455
-0.007236 0.01733 -0.004883 -0.005962 -0.027 0.02579 -0.01238 0.003876
-0.00945 0.001982 -0.02954 0.03287 -0.005894 0.02492 -0.0171 0.001085
0.002869 -0.01576 0.003674 -0.03061 0.0002437 0.003733 0.03687 -0.005177
-0.003574 0.02103 0.0196 -0.01528 0.012924 0.01857 0.00701 -0.01382
-0.03683 0.01419 -0.002922 0.02711 -0.03238 -0.01446 0.03473 -0.00807
0.002426 -0.004623 0.0268 -0.00923 -0.02516 -0.03076 -0.002356 -0.03656
-0.0619 0.02109 -0.002466 0.002298 0.02402 -0.03293 -0.014206 -0.003365
0.002924 0.03275 -0.00778 0.01159 -0.0342 -0.01938 -0.04443 0.02129
0.02095 0.0347 -0.00783 -0.04547 -0.01785 0.003311 0.00615 0.00706
-0.00782 -0.04276 -0.011536 0.00436 0.007072 -0.03586 0.01929 0.04178
-0.002499 -0.011505 0.0061 -0.01828 -0.004078 0.009285 0.01683 -0.002012
-0.01964 0.02075 0.01012 0.04822 0.01906 -0.02443 -0.00839 -0.00808
0.006115 0.01822 0.0398 -0.02525 0.006073 -0.01077 0.02756 0.03674
-0.01996 0.02957 0.002693 -0.03525 -0.02876 0.0357 -0.00449 0.03067
0.011086 -0.002111 0.02185 0.01897 0.001004 -0.003925 0.00715 0.007446
00000000: 49a5 6622 66a7 6122 971a 0f1e 2aa7 a9a3
00000010: 6ea2 6218 5e19 4594 351c cd1e 6e99 b023
00000020: ca1e 809d ad27 e919 fa23 a4a1 1329 6ca4
00000030: 81a2 31a3 1521 bbab 6519 6317 aba7 b421
00000040: 1fa6 0ea4 2520 079b 7525 ff15 eba1 28a7
00000050: c5a1 7b1b 1da3 6fa6 08a2 98a8 b9a6 9123
00000060: 969f 4521 5ca2 b927 8291 4f24 55a1 50a5
00000070: ba9f f61c 5699 cc9c 69a2 a321 5125 8ea8
00000080: 209c 2025 b224 71a4 63a8 11aa 6b26 e0a3
00000090: d29b 5726 7ca1 eba9 ad1f 5c9e 5624 05a7
000000a0: e8a4 b925 43a5 2d19 5524 0820 7695 b126
000000b0: a7a2 2414 9680 3f0e e820 af1b f6a4 dd98
000000c0: da1c 1ba5 a51c 7f26 a629 d41f 88a4 3c29
000000d0: b1a1 ba21 311b 049d b5a4 5925 c99f bfa4
000000e0: 4c14 0323 2d1d b6a0 36a1 ed26 da23 44a8
000000f0: 6125 8d25 4e1e f821 0219 0294 209a ee1c
00000100: ec20 21a4 72a2 9c9d 951f 8aa4 a9a5 f817
00000110: 699f 7024 009d 1b9e e9a6 9a26 57a2 f01b
00000120: d7a0 0f18 90a7 3528 099e 6126 61a4 7214
00000130: e019 09a4 861b d6a7 fc0b a51b b828 4d9d
00000140: 529b 6225 0525 d3a3 9e22 c124 2e1f 13a3
00000150: b7a8 4423 fc99 f126 25a8 67a3 7228 22a0
00000160: f818 bc9c dc26 baa0 71a6 e0a7 d398 aea8
00000170: ecab 6625 0d99 b518 2626 37a8 46a3 e49a
00000180: fd19 3128 f79f ef21 61a8 f6a4 b0a9 7325
00000190: 5d25 7128 02a0 d2a9 92a4 c81a 4c1e 3b1f
000001a0: 01a0 79a9 e8a1 771c 3e1f 97a8 f024 5929
000001b0: 1e99 e4a1 3f1e aea4 2d9c c120 4f24 1f98
000001c0: 07a5 5025 2e21 2c2a e124 41a6 4ca0 23a0
000001d0: 431e aa24 1829 77a6 381e 84a1 0e27 b428
000001e0: 1ca5 9227 8419 83a8 5da7 9228 999c da27
000001f0: ad21 5398 9825 db24 1d14 059c 521f a01f

transformer.wpe.weight f2 [512, 32]
0.01555 -0.02039 0.03008 0.02342 0.0004008 -0.02248 -0.0808 0.02338
-0.00768 0.00993 0.010414 0.00964 -0.009 0.009735 -0.003088 0.004066
0.0323 -0.00778 -0.01071 -0.0531 0.01434 -0.03192 -0.00914 -0.003963
-0.03586 0.00898 0.01486 0.012085 -0.03793 0.02705 -0.02177 0.00897
0.01503 -0.001304 0.0107 -0.006416 -0.01539 -0.003231 0.00886 -0.02716
-0.00493 0.011345 -0.002146 -0.003582 0.006664 0.0007105 0.00845 -0.01775
0.01151 0.01921 -0.0172 0.02756 -0.00539 0.00605 -0.012634 -0.006214
-0.004353 0.0347 0.01232 0.02095 0.01536 0.0423 0.02419 -0.01469
-0.001949 -0.02737 -0.01823 0.0004787 -0.03265 0.00997 0.0386 0.003305
0.01026 -0.0156 0.01259 0.02339 0.01604 -0.003063 0.01406 0.01413
0.0177 0.02094 -0.000647 -0.03488 0.002611 0.00943 0.001987 -0.00847
-0.00191 0.011314 -0.01974 0.00453 0.00972 -0.007545 0.0135 -0.03558
0.011406 -0.00899 0.002432 0.01573 0.00688 -0.0002184 -0.0219 0.01814
-0.01386 -0.0212 0.0004783 -0.001454 -0.01837 -0.00621 -0.008316 -0.002
-0.01598 0.0213 0.01255 0.00808 0.03784 -0.01437 -0.0086 0.010284
0.001256 0.0199 -0.02596 -0.002323 0.009415 0.0227 -0.01329 0.03072
0.01138 -0.03174 -0.00489 -0.0006 -0.0649 -0.004543 -0.012764 0.01952
0.01258 0.02002 -0.02438 -0.0106 0.008194 0.001179 -0.02504 0.00998
-0.02614 0.01103 0.031 -0.01993 0.00572 0.001182 0.008835 -0.01999
0.0445 -0.0007524 -0.004826 -0.02422 0.002817 0.03918 -0.03001 0.01086
0.01071 0.01043 0.01607 0.021 -0.0325 -0.01704 0.0356 0.00743
0.01507 0.01443 -0.01886 0.02226 -0.01947 0.003798 0.005157 0.012856
0.011116 0.006382 -0.006653 0.015335 0.003448 -0.01095 0.0132 -0.005478
-0.01053 -0.04074 -0.01502 -0.02829 0.01868 -0.02014 -0.000372 -0.01477
-0.00954 -0.01581 -0.00953 -0.002518 0.03717 0.01636 -0.001921 0.02747
-0.004356 0.002478 -0.05893 -0.02696 -0.003466 -0.00732 0.011185 -0.01469
0.0007386 -0.003748 0.0115 0.00597 0.01646 0.000502 -0.00822 -0.006626
-0.00639 -0.00688 0.0335 0.00456 -0.02483 0.002111 0.01113 -0.004295
-0.005253 -0.0003405 -0.02467 0.03876 -0.04303 -0.01784 0.007965 -0.02002
0.005825 0.01477 0.003187 -0.00193 0.02066 0.0349 0.01116 0.00654
-0.02187 0.01639 -0.01067 -0.004543 -0.02 -0.02538 -0.00703 -0.00922
-0.02542 0.03004 0.04977 0.00618 0.01491 0.003914 -0.02979 -0.009834
00000000: f623 38a5 b327 ff25 910e c1a5 2cad fc25
00000010: dd9f 1621 5521 f020 9ca0 fc20 539a 2a1c
00000020: 2228 f79f 7ca1 ccaa 5823 16a8 aea0 0f9c
00000030: 97a8 9920 9c23 3022 dba8 ed26 93a5 9820
00000040: b223 5795 7a21 929e e1a3 9e9a 8920 f4a6
00000050: 0c9d cf21 6598 569b d31e d211 5420 8ba4
00000060: e521 eb24 67a4 0e27 859d 321e 78a2 5d9e
00000070: 759c 7128 4f22 5d25 dd23 6a29 3126 85a3
00000080: fc97 02a7 aba4 d80f 2ea8 1b21 f128 c51a
00000090: 4121 fda3 7222 fd25 1b24 469a 3323 3c23
000000a0: 8824 5c25 4d91 77a8 5919 d420 1218 56a0
000000b0: d397 cb21 0ea5 a41c fa20 ba9f e922 8ea8
000000c0: d721 9aa0 fb18 0724 0c1f 288b 9ba5 a524
000000d0: 19a3 6da5 d60f f595 b4a4 5c9e 42a0 1998
000000e0: 17a4 7425 6d22 2320 d828 5ca3 67a0 4421
000000f0: 2515 1825 a5a6 c298 d220 d025 cea2 dd27
00000100: d421 10a8 029d ea90 27ac a79c 89a2 ff24
00000110: 7122 2025 3ea6 6da1 3220 d414 69a6 1c21
00000120: b1a6 a621 f027 1aa5 db1d d714 8620 1ea5
00000130: b229 2a92 f19c 33a6 c519 0429 afa7 8f21
00000140: 7c21 5721 1d24 6025 29a8 5da4 8f28 9c1f
00000150: b723 6323 d4a4 b325 fca4 c71b 481d 9522
00000160: b121 891e d09e da23 101b 9ba1 c222 9c9d
00000170: 64a1 37a9 b1a3 3ea7 c824 28a5 188e 90a3
00000180: e2a0 0ca4 e1a0 2899 c228 3024 de97 0827
00000190: 769c 1319 8bab e7a6 199b 7f9f ba21 85a3
000001a0: 0d12 ad9b e321 1d1e 3724 1d10 35a0 c99e
000001b0: 8b9e 0c9f 4a28 ab1c 5ba6 5318 b321 669c
000001c0: 619d 948d 51a6 f628 82a9 91a4 1420 20a5
000001d0: f71d 9023 871a e897 4a25 7828 b721 b21e
000001e0: 99a5 3224 77a1 a79c 1fa5 7fa6 339f b8a0
000001f0: 82a6 b127 5f2a 541e a223 021c a0a7 09a1

transformer.h.0.ln_1.weight f2 [32]
1.0 1.0 1.0 1.0 1.0 1.0 1.0 1.0
1.0 1.0 1.0 1.0 1.0 1.0 1.0 1.0
1.0 1.0 1.0 1.0 1.0 1.0 1.0 1.0
1.0 1.0 1.0 1.0 1.0 1.0 1.0 1.0
00000000: 003c 003c 003c 003c 003c 003c 003c 003c
00000010: 003c 003c 003c 003c 003c 003c 003c 003c
00000020: 003c 003c 003c 003c 003c 003c 003c 003c
00000030: 003c 003c 003c 003c 003c 003c 003c 003c

transformer.h.0.ln_1.bias f2 [32]
0.0 0.0 0.0 0.0 0.0 0.0 0.0 0.0
0.0 0.0 0.0 0.0 0.0 0.0 0.0 0.0
0.0 0.0 0.0 0.0 0.0 0.0 0.0 0.0
0.0 0.0 0.0 0.0 0.0 0.0 0.0 0.0
00000000: 0000 0000 0000 0000 0000 0000 0000 0000
00000010: 0000 0000 0000 0000 0000 0000 0000 0000
00000020: 0000 0000 0000 0000 0000 0000 0000 0000
00000030: 0000 0000 0000 0000 0000 0000 0000 0000

transformer.h.0.attn.c_attn.weight f2 [32, 96]
0.0256 0.0292 0.010345 -0.008736 -0.01756 0.002007 0.007397 -0.00635
-0.02403 0.01997 -0.003052 -0.01182 -0.006767 -0.003574 0.01171 0.00727
0.0373 0.01936 -0.01025 -0.007904 0.002802 0.02925 0.0008855 -0.01979
0.008766 -0.000182 -0.01704 0.00887 0.02048 0.02682 -0.005116 0.002838
0.006096 0.002419 0.013275 -0.02037 -0.01288 -0.0247 0.010956 0.006287
0.03583 0.0335 0.02295 -0.01712 -0.02153 -0.000583 -0.04715 0.01627
0.02751 0.0002613 0.02405 0.02132 -0.012856 0.03006 -0.01148 0.01918
-0.01704 -0.04346 0.01772 0.01494 -0.004982 -0.033 -0.05255 0.01863
-0.03696 0.00516 0.01065 0.01246 0.02017 0.01479 0.0421 0.00642
-0.02095 -0.02461 -0.01093 0.001746 0.02528 0.006084 -0.004055 0.0371
0.00717 0.03336 -0.005127 -0.01156 -0.01894 0.004574 -0.00655 -0.002127
0.00426 -0.0284 0.02116 0.02544 -0.00964 0.031 0.01455 -0.004948
-0.02443 -0.0377 -0.04984 -0.0183 0.006474 -0.0005016 -0.01185 -0.006947
0.01539 0.01666 -0.02654 -0.06058 0.06464 -0.001419 0.01747 0.008095
0.03983 -0.009895 -0.007607 -0.01103 0.01614 0.01233 -0.00781 0.02187
-0.001579 0.01965 -0.000559 -0.0463 0.02124 -5.215e-05 -0.01575 -0.0362
-0.02611 0.01639 0.03525 -0.004272 0.006447 0.01907 0.007423 -0.00715
-0.02974 0.000876 -0.001643 0.01866 0.02591 -0.0001901 0.01131 0.0202
0.00341 0.002787 -0.02625 -0.00581 -0.00302 -0.02982 0.003603 0.02441
0.01216 0.01243 -0.007454 -0.03452 -0.05457 -0.00375 -0.01645 -0.00786
0.04855 -0.01112 0.01013 -0.007652 -0.02432 0.02095 -0.01921 0.003485
-0.01953 -0.0486 -0.003584 0.00631 0.005165 -0.011604 0.001357 -0.02377
-0.00235 0.02693 0.0005946 -0.01874 0.02026 0.02013 0.006027 0.01174
0.006954 -0.01035 0.03035 -0.01203 -0.00746 -0.0251 0.0064 0.04282
-0.001268 0.002447 -0.001856 0.03787 -0.011696 -0.01627 0.007133 0.03882
0.0005445 -0.01862 -0.00857 0.012726 0.01797 0.00054 -0.01276 0.000885
0.0233 0.02255 0.02292 -0.023 -0.001724 -0.0119 -0.02003 -0.02505
0.001807 -0.01462 0.01212 0.06274 -0.01607 0.01634 -0.00884 -0.003683
-0.02904 -0.000804 -0.005272 0.02472 -0.0134 0.0001526 0.002022 -0.00854
0.00642 0.01227 -0.004463 -0.02158 0.004402 -0.01251 0.001091 0.003445
0.013016 -0.04303 0.01004 -0.005516 -0.006325 0.000637 -0.001543 -0.02713
0.01499 -0.02896 -0.004032 -0.03827 -0.01831 -0.02742 0.00461 0.01566
00000000: 8e26 7a27 4c21 79a0 7fa4 1c18 931f 819e
00000010: 27a6 1d25 409a 0da2 ee9e 529b ff21 721f
00000020: c628 f524 3fa1 0ca0 bd19 7d27 4113 11a5
00000030: 7d20 f789 5da4 8b20 3e25 de26 3d9d d019
00000040: 3e1e f418 cc22 37a5 98a2 53a6 9c21 701e
00000050: 9628 4a28 e025 62a4 83a5 c790 09aa 2a24
00000060: 0b27 480c 2826 7525 95a2 b227 e1a1 e924
00000070: 5da4 90a9 8924 a623 1a9d 39a8 baaa c524
00000080: bba8 491d 7421 6122 2a25 9323 6429 931e
00000090: 5da5 4da6 99a1 2717 7926 3b1e 279c c028
000000a0: 581f 4528 409d eba1 d9a4 af1c b59e 5b98
000000b0: 5d1c 45a7 6b25 8326 f0a0 f027 7323 119d
000000c0: 41a6 d3a8 61aa afa4 a11e 1c90 11a2 1d9f
000000d0: e123 4424 cba6 c1ab 232c d095 7924 2520
000000e0: 1929 11a1 ca9f a6a1 2224 5022 ff9f 9925
000000f0: 7896 0825 9490 eda9 7025 6b83 08a4 a2a8
00000100: afa6 3224 8328 609c 9a1e e224 9a1f 529f
00000110: 9da7 2d13 bb96 c724 a226 3b8a ca21 2c25
00000120: fc1a b519 b8a6 f39d 2f9a a2a7 611b 4026
00000130: 3a22 5d22 a29f 6ba8 fcaa ae9b 36a4 06a0
00000140: 372a b2a1 3021 d69f 3aa6 5d25 eba4 231b
00000150: 00a5 39aa 579b 761e 4a1d f1a1 8f15 16a6
00000160: d098 e526 df10 cca4 3025 2725 2c1e 0322
00000170: 1f1f 4da1 c527 29a2 a49f 6da6 8e1e 7b29
00000180: 3295 0319 9a97 d928 fda1 2aa4 4e1f f828
00000190: 7610 c4a4 63a0 8422 9a24 6c10 88a2 4013
000001a0: f725 c625 de25 e3a5 1097 18a2 21a5 6aa6
000001b0: 6717 7ca3 3522 042c 1da4 2f24 87a0 8b9b
000001c0: 6fa7 9692 669d 5426 dca2 0009 2418 5fa0
000001d0: 931e 4822 929c 86a5 821c 68a2 7814 0e1b
000001e0: aa22 82a9 2421 a69d 7a9e 3811 5296 f2a6
000001f0: ad23 6aa7 219c e6a8 b0a4 05a7 b81c 0224

transformer.h.0.attn.c_attn.bias f2 [96]
0.0 0.0 0.0 0.0 0.0 0.0 0.0 0.0
0.0 0.0 0.0 0.0 0.0 0.0 0.0 0.0
0.0 0.0 0.0 0.0 0.0 0.0 0.0 0.0
0.0 0.0 0.0 0.0 0.0 0.0 0.0 0.0
0.0 0.0 0.0 0.0 0.0 0.0 0.0 0.0
0.0 0.0 0.0 0.0 0.0 0.0 0.0 0.0
0.0 0.0 0.0 0.0 0.0 0.0 0.0 0.0
0.0 0.0 0.0 0.0 0.0 0.0 0.0 0.0
0.0 0.0 0.0 0.0 0.0 0.0 0.0 0.0
0.0 0.0 0.0 0.0 0.0 0.0 0.0 0.0
0.0 0.0 0.0 0.0 0.0 0.0 0.0 0.0
0.0 0.0 0.0 0.0 0.0 0.0 0.0 0.0
00000000: 0000 0000 0000 0000 0000 0000 0000 0000
00000010: 0000 0000 0000 0000 0000 0000 0000 0000
00000020: 0000 0000 0000 0000 0000 0000 0000 0000
00000030: 0000 0000 0000 0000 0000 0000 0000 0000
00000040: 0000 0000 0000 0000 0000 0000 0000 0000
00000050: 0000 0000 0000 0000 0000 0000 0000 0000
00000060: 0000 0000 0000 0000 0000 0000 0000 0000
00000070: 0000 0000 0000 0000 0000 0000 0000 0000
00000080: 0000 0000 0000 0000 0000 0000 0000 0000
00000090: 0000 0000 0000 0000 0000 0000 0000 0000
000000a0: 0000 0000 0000 0000 0000 0000 0000 0000
000000b0: 0000 0000 0000 0000 0000 0000 0000 0000

transformer.h.0.attn.c_proj.weight f2 [32, 32]
0.00758 0.002396 0.05368 0.02583 -0.02194 -0.005024 0.02141 -0.02364
-0.03366 -0.01228 -0.00828 0.003216 0.01875 -0.03046 0.02002 0.01566
0.008766 -0.010635 0.009224 0.001794 -0.01361 -0.006863 0.016 0.03072
-0.004112 -0.02574 -0.004322 0.000814 0.01464 -0.03503 -0.001009 0.0265
0.002638 -0.02963 0.00849 0.01362 0.02362 -0.012474 -0.04813 0.01613
0.02441 -0.00631 -0.02121 -0.02353 -0.02496 -0.01701 -0.001395 0.04926
-0.00816 0.01049 0.005447 0.0637 -0.003298 -0.02597 0.01917 -0.01892
0.001636 0.01342 0.02777 0.00816 -0.01043 0.04697 -0.010605 -0.01698
0.00674 -0.00958 0.002945 -0.00491 -0.01289 -0.01203 0.01949 -0.02217
-0.01608 -0.01209 -0.01 0.01467 -0.01736 0.01255 -0.00592 -0.01944
0.01442 0.01475 0.005898 -0.005943 -0.02176 0.02888 -0.00424 -0.007545
-0.01089 0.00903 -0.0001912 -0.02344 -0.01959 -0.01953 0.04538 0.01591
-0.01819 -0.001529 -0.0097 0.00871 -0.002668 -0.003622 -0.0194 -0.0214
0.05676 -0.00932 0.01121 -0.0001249 0.00391 0.00757 0.0148 -0.03705
0.0002394 -0.014755 0.02518 -0.04852 0.0394 -0.01752 -0.0369 -0.01418
-0.0003269 0.011696 0.00822 0.002415 -0.01903 0.0005827 0.00976 -0.001102
0.010666 -0.0413 0.013664 0.03873 -0.01952 0.00236 -0.02931 -0.000625
-0.02281 -0.01235 -0.01645 -0.02847 -0.00971 -0.000684 0.01492 0.00513
-0.0321 0.0249 -0.02466 -0.004284 -0.00214 -0.02208 -0.002516 -0.02258
0.007774 0.03186 -0.004692 0.01382 0.05063 -0.02188 -0.02391 0.0003545
-0.01527 -0.04126 -0.005054 -0.04596 -0.02643 0.01636 -0.01733 -0.02998
0.01084 0.002256 -0.02542 -0.02504 0.010956 -0.0185 0.00859 -0.01724
-0.00615 -0.04837 -0.00624 -0.02417 -0.02864 0.00010073 -0.05405 0.01142
-0.005806 0.018 -0.002312 -0.004913 -0.014725 -0.01738 0.000663 -0.01608
-0.013664 0.0327 0.0373 0.01088 0.02834 0.02461 0.0158 0.01301
0.013466 -0.011566 -0.02968 -0.013756 -0.01863 -0.02971 0.0004907 0.02835
-0.00851 0.01069 0.03418 0.00793 0.03056 -0.01768 0.01289 0.001465
-0.03885 0.00555 -0.00796 -0.02403 0.02747 0.004242 0.01379 -0.002464
-0.02533 -0.04095 -0.000612 0.0009475 -0.00959 -0.001806 0.00977 0.0152
0.01888 -0.0003464 0.02162 -0.02138 0.01785 -0.0123 0.00763 -0.005337
0.001441 0.01124 0.01337 0.01504 -0.03836 0.013695 0.003569 0.00032
-0.01338 -0.02432 0.007088 -0.0108 0.001976 0.009705 0.01467 -0.0007086
00000000: c31f e818 df2a 9d26 9ea5 259d 7b25 0da6
00000010: 4fa8 4aa2 3da0 961a cd24 cca7 2025 0224
00000020: 7d20 72a1 b920 5917 f8a2 079f 1924 dd27
00000030: 369c 97a6 6d9c ab12 7f23 7ca8 2294 c926
00000040: 6719 96a7 5920 f922 0c26 63a2 29aa 2124
00000050: 4026 769e 6ea5 06a6 64a6 5ba4 b795 4e2a
00000060: 2ea0 5f21 941d 142c c19a a6a6 e824 d8a4
00000070: b316 df22 1c27 2e20 57a1 032a 6ea1 59a4
00000080: e71e e8a0 081a 079d 9aa2 29a2 fd24 ada5
00000090: 1ea4 31a2 1fa1 8323 72a4 6d22 109e faa4
000000a0: 6223 8d23 0a1e 169e 92a5 6527 579c ba9f
000000b0: 93a1 a020 448a 00a6 04a5 00a5 cf29 1324
000000c0: a8a4 4396 f7a0 7620 7799 6b9b f7a4 7aa5
000000d0: 442b c6a0 bd21 1888 011c c01f 9423 bea8
000000e0: d80b 8ea3 7226 36aa 0b29 7ca4 b9a8 43a3
000000f0: 5b8d fd21 3520 f218 dfa4 c610 ff20 8494
00000100: 7621 49a9 ff22 f528 ffa4 d518 81a7 1f91
00000110: d7a5 53a2 36a4 4aa7 f9a0 9a91 a423 411d
00000120: 1ca8 6026 50a6 639c 6298 a7a5 2799 c8a5
00000130: f61f 1428 ce9c 1323 7b2a 9aa5 1fa6 cf0d
00000140: d1a3 48a9 2d9d e2a9 c4a6 3024 70a4 ada7
00000150: 8d21 9f18 82a6 69a6 9c21 bca4 6620 6aa4
00000160: 4c9e 31aa 649e 30a6 55a7 9a06 ebaa d921
00000170: f29d 9c24 bc98 089d 8aa3 73a4 6e11 1ea4
00000180: ffa2 3028 c628 9221 4127 4d26 0b24 a922
00000190: e522 eca1 99a7 0ba3 c5a4 9ba7 0510 4227
000001a0: 5ba0 7921 6028 0f20 d327 87a4 9a22 0016
000001b0: f9a8 af1d 13a0 27a6 0827 581c 0f23 0c99
000001c0: 7ca6 3ea9 0391 c313 e9a0 6697 0121 c823
000001d0: d524 ad8d 8925 79a5 9224 4ca2 d01f 779d
000001e0: e715 c121 d822 b323 e9a8 0323 4f1b 3e0d
000001f0: daa2 3aa6 421f 88a1 0c18 f820 8323 ce91

transformer.h.0.mlp.c_fc.weight f2 [32, 128]
0.001621 -0.02376 -0.001257 -0.001982 0.01409 0.01151 0.02478 -0.02301
0.00713 -0.001406 -0.00788 -0.007156 -0.002089 0.02032 -0.04892 0.0133
0.001845 0.01493 0.00692 -0.0362 -0.04172 0.03412 -0.003017 0.0392
-0.001647 -0.01865 -0.005524 -0.005543 0.01305 0.00635 -0.02122 0.000508
0.013985 0.02713 -0.03445 -0.008575 -0.00978 0.006985 -0.01132 0.01247
-0.0415 -0.006237 0.0314 0.001303 -0.001466 -0.02426 0.02075 0.01496
-0.001695 -0.03091 -0.01208 0.013916 0.02054 0.04285 -0.004627 0.002125
-0.003885 0.02444 -0.01209 -0.02359 0.000328 -0.009995 0.02876 -0.0007105
-0.00439 -0.00889 -0.00262 -0.005848 0.013695 -0.006706 0.006317 0.01424
-0.004585 0.02802 0.0398 0.0135 -0.00938 0.00269 0.00906 -0.02171
0.0391 -0.001847 -0.0004663 -0.01746 0.03888 0.01538 -0.01422 -0.01366
0.00786 0.01599 0.01585 -0.013214 0.0204 0.0002114 0.003317 -0.009125
-0.015526 0.02945 0.03726 -0.01753 -0.02048 -0.00817 -0.05917 -0.005325
0.01837 0.00952 -0.007145 -0.001349 -0.01967 -0.003633 -0.02141 0.04
0.02461 0.04242 -0.00304 0.0261 -0.0172 -0.01268 0.02705 -0.02542
0.01016 0.03986 -4.91e-05 0.007652 -0.002785 -0.01566 0.00941 -0.0007253
-0.01892 -0.007706 -0.004055 0.01107 -0.02385 -0.009735 -0.01209 -0.01985
-0.02034 -0.00907 0.013466 0.03738 0.01125 0.00477 0.01106 -0.003614
-0.03055 -0.01014 0.03357 -0.02563 0.0224 0.01802 -0.00921 -0.03525
-0.03882 0.001561 -0.01359 -0.01516 -0.00337 -0.05292 -0.03323 0.02377
0.01382 -0.01913 0.00792 0.006523 0.001547 0.002151 -0.01339 0.01123
-0.0004983 0.0115 0.05298 0.02081 -0.003517 -0.004337 0.05005 -0.03061
-0.004044 0.0166 0.01078 0.03207 0.05243 -0.01095 0.02122 0.0007524
0.01875 0.003836 0.002739 0.01402 -0.01545 -3.046e-05 0.00802 0.03424
-0.01689 0.00359 -0.0209 0.013374 -0.0467 -0.01397 -0.02892 -0.006004
-0.02278 -0.02643 -0.002073 -0.01833 0.03284 0.02156 -0.001876 -0.002926
-0.00786 0.01387 -0.011635 -0.002533 -0.008385 -0.00101 -0.01312 0.02956
0.01177 -0.0002115 -0.01383 0.01837 -0.02855 0.01083 -0.00808 -0.03778
-0.01653 0.01819 -0.02632 -0.0353 0.00712 0.014984 0.005722 0.012375
0.02255 -0.02516 0.01666 0.008865 -0.0002204 0.007694 -0.01228 0.0245
0.01002 0.01591 -0.007286 0.02002 0.04044 0.01683 0.007812 -0.00161
0.00955 0.02934 0.001884 0.004784 0.0028 0.0146 0.014175 0.001044
00000000: a416 15a6 2695 0f98 3723 e521 5826 e4a5
00000010: 4d1f c295 09a0 549f 4798 3425 43aa cf22
00000020: 8f17 a523 161f a2a8 57a9 5e28 2e9a 0529
00000030: bf96 c6a4 a89d ad9d ae22 811e 6fa5 2910
00000040: 2923 f226 69a8 64a0 02a1 271f cca1 6222
00000050: 50a9 639e 0528 5615 0196 36a6 5025 a923
00000060: f196 eaa7 2fa2 2023 4225 7c29 bd9c 5a18
00000070: f59b 4226 31a2 0aa6 600d 1ea1 5d27 d291
00000080: 7f9c 8da0 5e99 fd9d 0323 de9e 781e 4a23
00000090: b29c 2c27 1829 e922 cda0 8219 a420 8fa5
000000a0: 0129 9197 a48f 78a4 fa28 e023 48a3 fea2
000000b0: 0620 1824 0f24 c4a2 3925 ed0a cb1a aca0
000000c0: f3a3 8a27 c528 7da4 3ea5 2fa0 93ab 749d
000000d0: b424 e020 519f 8795 09a5 719b 7ba5 1f29
000000e0: 4d26 6e29 3a9a ae26 67a4 7ea2 ed26 82a6
000000f0: 3421 1a29 3883 d61f b499 02a4 d120 f191
00000100: d8a4 e49f 279c ab21 1ba6 fca0 31a2 15a5
00000110: 35a5 a5a0 e522 c928 c321 e21c aa21 679b
00000120: d2a7 31a1 4c28 90a6 bc25 9d24 b7a0 83a8
00000130: f8a8 6516 f5a2 c3a3 e79a c6aa 41a8 1626
00000140: 1323 e6a4 0e20 ae1e 5616 6818 dba2 c021
00000150: 1590 e321 c82a 5425 349b 719c 682a d6a7
00000160: 249c 4024 8521 1b28 b62a 9ba1 6f25 2a12
00000170: cd24 db1b 9c19 2e23 e9a3 ff81 1b20 6228
00000180: 53a4 5a1b 5aa5 d922 faa9 27a3 67a7 269e
00000190: d5a5 c4a6 3f98 b1a4 3428 8525 af97 fe99
000001a0: 06a0 1a23 f5a1 3099 4ba0 2394 b8a2 9127
000001b0: 0722 ee8a 15a3 b424 4fa7 8c21 23a0 d6a8
000001c0: 3ba4 a824 bda6 85a8 4a1f ac23 dc1d 5622
000001d0: c625 71a6 4424 8a20 398b e11f 4aa2 4626
000001e0: 2121 1324 769f 2025 2d29 4f24 0020 9896
000001f0: e420 8327 b817 e61c bc19 7a23 4223 4714

transformer.h.0.mlp.c_fc.bias f2 [128]
0.0 0.0 0.0 0.0 0.0 0.0 0.0 0.0
0.0 0.0 0.0 0.0 0.0 0.0 0.0 0.0
0.0 0.0 0.0 0.0 0.0 0.0 0.0 0.0
0.0 0.0 0.0 0.0 0.0 0.0 0.0 0.0
0.0 0.0 0.0 0.0 0.0 0.0 0.0 0.0
0.0 0.0 0.0 0.0 0.0 0.0 0.0 0.0
0.0 0.0 0.0 0.0 0.0 0.0 0.0 0.0
0.0 0.0 0.0 0.0 0.0 0.0 0.0 0.0
0.0 0.0 0.0 0.0 0.0 0.0 0.0 0.0
0.0 0.0 0.0 0.0 0.0 0.0 0.0 0.0
0.0 0.0 0.0 0.0 0.0 0.0 0.0 0.0
0.0 0.0 0.0 0.0 0.0 0.0 0.0 0.0
0.0 0.0 0.0 0.0 0.0 0.0 0.0 0.0
0.0 0.0 0.0 0.0 0.0 0.0 0.0 0.0
0.0 0.0 0.0 0.0 0.0 0.0 0.0 0.0
0.0 0.0 0.0 0.0 0.0 0.0 0.0 0.0
00000000: 0000 0000 0000 0000 0000 0000 0000 0000
00000010: 0000 0000 0000 0000 0000 0000 0000 0000
00000020: 0000 0000 0000 0000 0000 0000 0000 0000
00000030: 0000 0000 0000 0000 0000 0000 0000 0000
00000040: 0000 0000 0000 0000 0000 0000 0000 0000
00000050: 0000 0000 0000 0000 0000 0000 0000 0000
00000060: 0000 0000 0000 0000 0000 0000 0000 0000
00000070: 0000 0000 0000 0000 0000 0000 0000 0000
00000080: 0000 0000 0000 0000 0000 0000 0000 0000
00000090: 0000 0000 0000 0000 0000 0000 0000 0000
000000a0: 0000 0000 0000 0000 0000 0000 0000 0000
000000b0: 0000 0000 0000 0000 0000 0000 0000 0000
000000c0: 0000 0000 0000 0000 0000 0000 0000 0000
000000d0: 0000 0000 0000 0000 0000 0000 0000 0000
000000e0: 0000 0000 0000 0000 0000 0000 0000 0000
000000f0: 0000 0000 0000 0000 0000 0000 0000 0000

transformer.h.0.mlp.c_proj.weight f2 [128, 32]
-0.004005 0.003368 0.036 0.003891 0.007236 0.003897 0.01738 0.0007024
0.03973 0.03662 0.01007 0.01162 0.037 -0.006897 0.01248 -0.005093
0.03113 0.0084 0.01817 -0.001843 0.01033 -0.01971 -0.006847 0.01973
0.02834 0.03638 0.0001147 0.02655 -0.01842 -0.02112 0.0009265 0.02144
0.01265 0.03763 0.02736 0.01918 -0.001553 -0.01456 -0.01811 0.00939
-0.0001727 -0.00691 -0.00903 0.02269 0.03723 0.04782 -0.000325 0.0363
0.01773 -0.000807 0.01428 -0.0316 -0.0433 0.02747 -0.008705 0.013275
-0.002874 0.009636 -0.001407 -0.04288 0.01875 -0.002172 0.001482 0.04254
-0.001286 0.006 -0.01432 0.001275 0.0178 -0.002625 -0.01984 0.01768
0.0538 0.014824 -0.01288 0.01071 0.02748 0.014984 0.0232 0.001728
-0.04214 0.01417 -0.015335 0.009315 0.002327 -0.004025 0.01587 -0.02643
0.0373 0.006218 0.0345 -0.02534 -0.003967 -0.04324 -0.03165 0.001332
0.004665 0.01138 -0.012505 0.04236 -0.0452 -0.01349 -0.01956 -0.03595
-0.0081 -0.01566 -0.01663 -0.01296 0.01517 -0.006367 0.03482 -0.03137
-0.008255 0.01308 -0.01836 -0.03793 0.02661 0.01144 -0.01358 0.00612
-0.00831 0.001859 0.004234 0.0196 0.00569 -0.03513 0.0007257 -0.007362
-0.00361 -0.01639 0.01935 0.05237 0.04614 -0.01137 -0.00916 -0.01179
0.01764 -0.004963 -0.01382 -0.01704 0.012146 0.02402 0.0102 0.006443
-0.01846 0.03094 0.02402 -0.02155 0.01698 0.00854 0.01436 0.0318
-0.03625 0.007576 0.0384 -0.02377 0.01494 -0.007305 0.02785 0.02356
-0.003819 0.0064 -0.02206 -0.02159 0.008354 0.01528 -0.004387 -0.01819
0.003826 -0.01418 0.03232 -0.003082 -0.03247 0.003563 -0.0168 0.013145
0.02933 -0.01473 0.01645 0.01161 0.02554 -0.01281 0.003422 -0.003656
0.003895 0.000286 0.03064 -0.000625 -0.04904 -0.01403 0.01646 -0.03558
-0.00348 -0.009026 0.01643 -0.03424 0.00943 0.01202 0.01292 -0.0172
0.01643 -0.01735 -0.02313 -0.01244 0.01198 -0.0345 0.01021 0.0246
-0.002054 0.0221 0.0083 -0.01564 0.0358 0.006157 -0.004887 -0.01944
0.010025 0.01374 0.03165 -0.02783 0.003757 -0.00776 -0.02449 0.000326
-0.00789 0.005806 -0.002474 -0.01689 -0.02475 0.03049 -0.01534 -0.03006
0.02707 -0.01203 -0.0006485 0.002754 -0.0241 -0.02989 -0.000525 0.02263
0.02551 0.04526 -0.003933 -0.0002372 0.003487 0.02722 -0.00408 -0.01414
-0.004684 0.00657 -0.0163 0.010574 -0.006184 -2e-05 -0.0005426 0.00876
00000000: 1a9c e61a 9c28 f81b 691f fb1b 7324 c111
00000010: 1629 b028 2821 f321 bc28 109f 6422 379d
00000020: f827 4d20 a724 8d97 4a21 0ca5 039f 0d25
00000030: 4127 a828 8407 cc26 b7a4 68a5 9713 7d25
00000040: 7a22 d128 0127 e924 5c96 74a3 a3a4 cf20
00000050: a989 139f a0a0 cf25 c428 1f2a 538d a528
00000060: 8a24 9c92 5023 0ba8 8ba9 0827 75a0 cc22
00000070: e399 ef20 c395 7da9 cd24 7398 1216 7229
00000080: 4495 251e 55a3 3915 8f24 6099 14a5 8724
00000090: e32a 9723 98a2 7c21 0927 ac23 f025 1417
000000a0: 65a9 4123 daa3 c520 c418 1f9c 1024 c4a6
000000b0: c628 5e1e 6a28 7da6 109c 89a9 0da8 7515
000000c0: c71c d421 67a2 6c29 c9a9 e8a2 02a5 9aa8
000000d0: 26a0 02a4 42a4 a3a2 c423 859e 7528 04a8
000000e0: 3aa0 b222 b3a4 dba8 d026 db21 f4a2 441e
000000f0: 41a0 9d17 561c 0525 d41d 7fa8 f211 8a9f
00000100: 659b 32a4 f424 b42a e829 d2a1 b1a0 09a2
00000110: 8424 159d 13a3 5da4 3822 2626 3921 991e
00000120: baa4 ec27 2626 84a5 5924 5f20 5a23 1228
00000130: a4a8 c21f ea28 16a6 a623 7b9f 2127 0826
00000140: d29b 8e1e a6a5 87a5 4720 d323 7e9c a8a4
00000150: d61b 43a3 2328 509a 28a8 4c1b 4da4 bb22
00000160: 8227 8ba3 3624 f221 8a26 8fa2 021b 7d9b
00000170: fa1b b00c d827 1f91 47aa 2fa3 3724 8ea8
00000180: 219b 9fa0 3524 62a8 d420 2722 9d22 67a4
00000190: 3524 71a4 eca5 5fa2 2222 6aa8 3a21 4c26
000001a0: 3598 a825 4020 01a4 9528 4e1e 019d faa4
000001b0: 2221 0923 0d28 20a7 b21b f29f 45a6 570d
000001c0: 0aa0 f21d 1199 53a4 56a6 ce27 dba3 b2a7
000001d0: ee26 29a2 5091 a419 2ba6 a7a7 4d90 cb25
000001e0: 8826 cb29 079c c68b 241b f826 2e9c 3da3
000001f0: cc9c ba1e 2ca4 6a21 559e 5081 7290 7c20

transformer.h.1.attn.c_attn.weight f2 [32, 96]
-0.01044 0.007183 -0.01272 -0.00798 -0.02573 0.00903 0.0015335 -0.00233
-0.03232 0.03427 -0.04144 -0.02737 -0.004475 -0.03534 -0.01889 0.01048
0.02382 0.01973 0.000847 0.01412 -0.01128 0.02084 -0.011406 -0.004593
-0.00631 -0.007534 -0.01968 -0.02264 0.0178 -0.0204 0.0343 0.001565
0.001569 0.00345 0.0356 -0.003733 -0.02809 -0.0086 -0.01226 0.01683
0.01511 -0.000617 0.005405 -0.00499 0.002647 0.003332 0.00812 -0.02084
-0.00179 0.04944 -0.01855 0.01608 0.004097 -0.01328 0.004314 0.0008073
-0.01659 -0.02226 0.03622 -0.02336 0.03244 0.02127 0.005787 -0.003183
0.007404 -0.01118 0.0522 0.002453 0.010506 0.02866 -0.00551 -0.00488
0.02386 0.0186 -0.01275 -0.01464 -0.005905 0.001311 -0.01976 0.007683
-0.02135 -0.03284 -0.0007744 0.0304 -0.005226 0.02382 0.01054 -0.00844
-0.01469 -0.02348 0.006584 0.0421 -0.014465 0.03027 0.01398 0.05362
0.001689 -0.00479 -0.000252 0.02461 0.03708 0.002773 0.04028 -0.00838
-0.002346 0.00448 -0.0199 0.01427 0.023 0.049 -0.003428 0.04117
-0.005947 0.02664 0.00979 -0.03094 -0.005642 -0.01837 -0.0335 0.0126
-0.00445 0.01211 0.00818 0.01508 0.0387 0.0006375 0.01602 0.01862
-0.013725 -0.02817 -0.03406 -0.01043 0.009315 -0.00493 -0.0004814 0.00973
0.01168 0.04614 0.002308 -0.00512 -0.01402 -0.014015 0.012375 -0.005096
-0.005486 -0.02196 -0.02193 0.011955 0.02634 -0.03232 0.010506 0.0158
0.006382 -0.01721 -0.03577 -0.02301 0.02278 0.01672 0.01196 0.002491
0.007057 0.0008945 0.01825 0.02077 0.0057 -0.0171 0.0002216 -0.0107
-0.00736 0.04208 0.01433 0.03082 -0.02087 0.013374 0.0014105 -0.01274
-0.01191 -0.01508 0.01656 -0.04028 -0.01214 0.02745 -0.01952 0.03323
-0.0013075 0.003462 -0.01677 0.01125 0.01866 -0.01857 -0.002018 -0.004917
0.02957 -0.01407 0.01619 -0.00813 -0.006886 0.006783 -0.01997 -0.0345
0.02298 -0.01052 -0.006042 -0.009 -0.014854 -0.027 0.0126 0.02547
-0.02626 -0.001595 -0.04922 0.006626 0.01511 0.01159 -0.003853 0.03023
0.01546 0.001472 -0.012344 -0.001509 -0.00343 -0.03412 0.03555 -0.0001309
-0.00225 -0.0005 -0.03044 0.0216 -0.02982 -0.04495 0.004185 -0.00849
-0.02083 -0.01839 -0.0313 -0.003595 0.01245 -0.01275 -0.01784 -0.000567
-0.03033 -0.07404 -0.0342 -0.02283 0.0221 0.005203 -0.001855 -0.02588
0.004894 -0.002817 -0.01084 -0.002146 -0.01778 -0.01639 0.01851 0.02501
00000000: 58a1 5b1f 83a2 16a0 96a6 a020 4816 c698
00000010: 23a8 6328 4ea9 02a7 959c 86a8 d6a4 5e21
00000020: 1926 0d25 f012 3b23 c6a1 5625 d7a1 b49c
00000030: 769e b79f 0aa5 cca5 8f24 39a5 6428 6916
00000040: 6d16 111b 8f28 a59b 31a7 67a0 47a2 4f24
00000050: bc23 0e91 891d 1c9d 6c19 d31a 2820 56a5
00000060: 5597 542a c0a4 1e24 321c cda2 6b1c 9d12
00000070: 3fa4 b3a5 a328 fba5 2728 7225 ed1d 859a
00000080: 951f b9a1 ae2a 0619 6121 5627 a49d ff9c
00000090: 1c26 c324 87a2 7fa3 0c9e 5f15 0fa5 de1f
000000a0: 77a5 34a8 5892 c827 5a9d 1926 6521 52a0
000000b0: 85a3 03a6 be1e 6429 68a3 c027 2823 dd2a
000000c0: eb16 e89c 218c 4d26 bf28 ae19 2829 4aa0
000000d0: ce98 961c 18a5 4e23 e325 462a 059b 4529
000000e0: 179e d226 0321 eca7 c79d b4a4 4aa8 7422
000000f0: 8f9c 3322 3020 b923 f428 3911 1a24 c424
00000100: 07a3 36a7 5ca8 57a1 c520 0c9d e38f fb20
00000110: fb21 e829 ba18 3e9d 2ea3 2da3 5622 389d
00000120: 9e9d 9fa5 9da5 1f22 be26 23a8 6121 0b24
00000130: 891e 68a4 94a8 e4a5 d525 4824 2022 1a19
00000140: 3a1f 5413 ac24 5125 d61d 61a4 430b 7aa1
00000150: 899f 6329 5623 e427 58a5 d922 c715 86a2
00000160: 19a2 b9a3 3d24 28a9 37a2 0727 ffa4 4128
00000170: 5b95 171b 4ba4 c321 c724 c1a4 2298 099d
00000180: 9227 34a3 2524 2aa0 0d9f f21e 1da5 6aa8
00000190: e225 63a1 309e 9ca0 9ba3 e9a6 7422 8526
000001a0: b9a6 8896 4daa c91e bc23 ef21 e49b bd27
000001b0: ea23 0816 52a2 2e96 069b 5ea8 8d28 4a88
000001c0: 9c98 1990 cba7 8825 a2a7 c1a9 491c 59a0
000001d0: 55a5 b5a4 02a8 5d9b 6022 87a2 91a4 a590
000001e0: c4a7 bdac 61a8 d8a5 a825 541d 9997 a0a6
000001f0: 031d c599 8da1 6598 8da4 32a4 bd24 6726

transformer.h.1.attn.c_proj.weight f2 [32, 32]
0.001333 -0.015236 0.02682 0.008354 0.03876 0.01706 0.00103 -0.00652
-0.006847 -0.00795 -0.01723 0.005657 -0.02586 -0.005768 0.0146 -0.0361
-0.01051 0.012634 0.01804 -0.03677 0.001053 0.01345 -0.00614 0.0158
0.04715 0.006733 0.02428 -0.00835 -0.03882 -0.01318 0.0169 -0.007755
0.01662 -0.03616 0.00607 0.0537 0.02113 0.02005 0.002295 0.001856
0.006126 0.01622 7.96e-05 -0.02077 -0.00899 0.02548 0.01134 -0.01385
-0.0002818 0.00925 -0.01017 0.01753 0.0026 -0.008125 0.014595 0.002007
-0.007317 -0.02733 0.005356 0.0443 0.01366 -0.00735 0.01715 -0.01253
0.03363 -0.04086 0.01701 -0.005497 0.01227 0.01419 -0.01485 0.02507
0.01173 0.001409 -0.010315 0.00126 0.01712 0.00446 -0.0003097 -0.02159
0.03918 -0.00702 0.01557 -0.009254 -0.002527 0.03522 -0.00388 0.002403
-0.02875 0.007015 0.0003982 0.03287 0.0339 -0.02197 -0.03653 0.01473
0.02043 -0.003708 0.003263 -0.0019245 0.01005 0.0245 0.014984 0.03253
-0.01203 -0.0182 0.00981 0.002882 0.04773 -0.01878 0.011665 0.001276
0.001018 -0.004223 0.01328 -0.006588 -0.02243 0.00372 -0.03748 0.004562
-0.01258 -0.002956 0.01124 0.007595 -0.01643 0.00374 0.03128 0.02641
-0.01987 -0.01984 0.01529 0.0083 -0.01933 0.01145 -0.006508 -0.011536
0.02046 0.02742 -0.02751 -0.0005984 0.0004356 -0.03632 -0.004314 -0.003635
-0.001224 0.013756 0.002121 -0.008835 -0.02237 0.02214 -0.0235 -0.01997
-0.03906 0.00934 -0.02551 0.007233 0.001338 -0.002981 0.00801 -0.002851
0.01289 -0.01904 -0.01788 -0.05576 -0.01599 -0.03067 -0.001021 0.04468
0.007904 -0.01767 -0.00453 0.03574 0.0004525 -0.000528 0.02142 -0.006123
-0.0375 -0.002333 0.00596 -0.011536 -0.0092 -0.010216 -0.005856 0.01712
-0.01935 -0.01828 -0.03513 0.0222 -0.001631 0.01056 -0.004353 -0.0173
0.004086 -0.01249 -0.007267 0.003641 0.02402 0.02109 0.0006804 -0.03442
0.02457 -0.0209 -0.011406 0.0191 -0.008415 0.002968 -0.00898 0.001959
0.0172 -0.01765 0.004314 0.02632 0.006134 -0.01413 0.01486 -0.01749
0.00632 0.007805 0.03384 0.00815 -0.00148 0.03363 0.02092 0.000821
0.02893 0.01949 -0.0205 0.003603 -0.02118 -0.010704 -0.02199 0.010956
-0.02039 0.01168 0.03026 -0.005836 0.02174 0.002302 -0.01317 0.04797
-0.001141 0.02109 0.01324 0.0351 -0.0227 -0.001137 0.00945 0.01971
0.013954 -0.001218 0.0084 -0.009346 0.003956 -0.01735 0.001083 -0.01169
00000000: 7615 cda3 de26 4720 f628 5e24 3814 ad9e
00000010: 039f 12a0 69a4 cb1d 9fa6 e89d 7a23 9fa8
00000020: 62a1 7822 9e24 b5a8 5014 e322 4a9e 0b24
00000030: 092a e51e 3726 46a0 f8a8 c0a2 5424 f19f
00000040: 4124 a1a8 371e e02a 6925 2225 b318 9a17
00000050: 461e 2724 3705 51a5 9aa0 8626 ce21 17a3
00000060: 9e8c bc20 35a1 7d24 5319 29a0 7923 1c18
00000070: 7e9f ffa6 7c1d ac29 fe22 879f 6424 6aa2
00000080: 4e28 3ba9 5b24 a19d 4822 4423 9aa3 6b26
00000090: 0122 c515 48a1 2915 6224 911c 138d 87a5
000000a0: 0429 309f f923 bda0 2d99 8228 f29b ec18
000000b0: 5ca7 2f1f 860e 3528 5728 a0a5 ada8 8b23
000000c0: 3b25 989b af1a e297 2521 4626 ac23 2a28
000000d0: 29a2 a9a4 0621 e719 1c2a cfa4 f921 3a15
000000e0: 2b14 539c cd22 bf9e bea5 9e1b cca8 ac1c
000000f0: 71a2 0e9a c121 c71f 35a4 a91b 0128 c326
00000100: 16a5 14a5 d423 4020 f3a4 dd21 aa9e e8a1
00000110: 3d25 0527 0ba7 e790 230f a6a8 6b9c 729b
00000120: 0395 0b23 5818 86a0 baa5 ab25 04a6 1da5
00000130: 00a9 c820 88a6 681f 7b15 1b9a 1a20 d799
00000140: 9a22 e0a4 94a4 23ab 18a4 daa7 2f94 b829
00000150: 0c20 86a4 a49c 9328 6a0f 5390 7c25 459e
00000160: cda8 c798 1a1e e8a1 b6a0 3ba1 ff9d 6224
00000170: f4a4 aea4 7fa8 af25 ae96 6821 759c 6ea4
00000180: 2f1c 65a2 719f 751b 2626 6625 9311 68a8
00000190: 4a26 5aa5 d7a1 e424 4fa0 141a 99a0 0318
000001a0: 6724 85a4 6b1c bd26 481e 3ca3 9c23 7aa4
000001b0: 791e fe1f 5528 2c20 1096 4e28 5b25 ba12
000001c0: 6827 fd24 3fa5 611b 6ca5 7ba1 a1a5 9c21
000001d0: 38a5 fb21 bf27 fa9d 9125 b718 bea2 242a
000001e0: ac94 6625 c722 7e28 d0a5 a894 d720 0c25
000001f0: 2523 fd94 4d20 c9a0 0d1c 71a4 7014 fca1

transformer.h.1.mlp.c_fc.weight f2 [32, 128]
0.0742 -0.009186 -0.02277 0.03534 -0.00644 0.01153 -0.00906 0.01486
-0.02094 0.01079 -0.0162 0.01477 -0.006313 -0.02338 -0.0233 -0.005947
0.02103 -0.01868 0.0001765 -0.010796 0.02238 -0.01073 -0.01031 0.01828
-0.001619 -0.0167 -0.01628 -0.0006113 -0.01848 -0.01213 0.00218 0.008575
0.01063 -0.01791 0.004005 0.02899 -0.001466 0.00337 0.03394 -0.01706
0.01523 -0.02531 0.04044 -0.001481 -0.01665 0.01394 -0.00209 -0.005173
-0.002773 0.0002137 0.00729 -0.005512 0.01932 -0.01559 -0.004333 0.039
-0.015144 -0.02399 -0.0178 -0.01883 0.01068 0.0009265 -0.01493 0.01529
-0.002596 0.01776 -0.03032 -0.00845 -0.02913 0.0528 0.02942 -0.02429
0.00923 -0.01144 0.00626 -0.01868 -0.01352 -0.00989 -0.006435 -0.0209
0.012726 0.02798 0.004475 -0.0202 0.014854 -0.007023 0.02094 0.012924
-0.002151 -0.0305 -0.0206 0.001201 -0.00797 -0.01834 0.002384 0.01666
0.002209 0.003384 -0.02245 0.005783 -0.0429 0.006336 -0.04303 0.003578
0.002497 -0.004448 -0.011665 -0.0001527 -0.004795 -0.01788 0.004547 0.011566
-0.001993 -0.01692 -0.02422 -0.03503 -0.00935 0.001329 -0.01752 0.01383
0.00804 -0.02577 -0.01391 -0.01192 0.00415 0.01694 -0.005146 -0.02199
0.02301 -0.003212 0.0376 0.01915 0.005577 -0.03656 -0.002344 -0.001436
-0.01921 0.01425 0.01578 -0.011795 -0.011055 0.003963 -0.0203 -0.03482
-0.00917 -0.01675 0.02852 -0.01169 -0.00955 -0.03049 0.0367 0.004913
0.001965 0.02257 0.01086 -0.06042 -0.01587 0.0008807 0.002743 0.001531
0.01279 -0.01309 0.003237 0.013466 -0.005604 0.006195 0.02408 0.003828
0.01305 0.001087 -0.01285 -0.004826 -0.02432 -0.005558 0.0274 -0.02588
-0.01562 -0.00726 -0.02274 0.003626 0.01208 0.03525 -0.01267 -0.02702
0.01866 0.012924 -0.03592 -0.01223 -0.01881 -0.01529 0.007652 0.02405
-0.0364 0.0132 -0.03467 0.01352 -0.01663 -0.02493 -0.02168 0.01422
0.0184 -0.001259 -0.00786 0.01172 0.0006905 -0.01965 -0.007996 -0.0489
-0.0508 0.03784 0.002768 0.006054 -0.0147 -0.007065 -0.01631 -0.006657
-0.01987 -0.007427 -0.002604 0.0093 -0.00308 0.013 0.029 0.03008
0.02394 -0.01616 0.01755 0.008156 -0.03073 0.0111 0.03137 0.0332
0.01251 -0.01567 -0.0001308 -0.002943 -0.0336 -0.01703 0.03934 -0.004692
0.02002 0.01007 0.001855 0.02924 0.04434 -0.002792 0.02385 0.007996
-0.007042 0.02211 -0.01668 -0.006695 0.02478 -0.002583 -0.04517 0.01294
00000000: c02c b4a0 d4a5 8628 989e e721 a4a0 9c23
00000010: 5ca5 8621 26a4 9023 779e fca5 f7a5 179e
00000020: 6225 c8a4 c909 87a1 bb25 7ea1 47a1 ae24
00000030: a296 46a4 2ba4 0291 bba4 36a2 7718 6420
00000040: 7121 96a4 1a1c 6c27 0196 e71a 5828 5ea4
00000050: cc23 7ba6 2d29 1196 43a4 2323 4898 4c9d
00000060: ae99 010b 771f a59d f224 fba3 709c fe28
00000070: c1a3 24a6 8fa4 d2a4 7821 9713 a5a3 d423
00000080: 5199 8c24 c3a7 54a0 75a7 c22a 8827 38a6
00000090: ba20 dba1 691e c8a4 eca2 10a1 979e 5aa5
000000a0: 8422 2a27 951c 2ca5 9b23 319f 5c25 9e22
000000b0: 6898 cfa7 46a5 eb14 15a0 b2a4 e218 4424
000000c0: 8618 ee1a bfa5 ec1d 7ea9 7d1e 82a9 541b
000000d0: 1d19 8e9c f9a1 0189 e99c 94a4 a81c ec21
000000e0: 1598 55a4 33a6 7ca8 caa0 7215 7ca4 1523
000000f0: 1e20 99a6 1fa3 1aa2 401c 5624 459d a1a5
00000100: e425 949a d028 e724 b61d aea8 cd98 e295
00000110: eba4 4c23 0a24 0aa2 a9a1 0f1c 32a5 75a8
00000120: b2a0 4aa4 4d27 fca1 e4a0 cea7 b328 081d
00000130: 0618 c725 8f21 bcab 10a4 3713 9e19 4516
00000140: 8c22 b4a2 a11a e522 bd9d 581e 2a26 d71b
00000150: ae22 7414 94a2 f19c 3aa6 b19d 0427 a0a6
00000160: ffa3 6f9f d2a5 6d1b 2f22 8328 7da2 eba6
00000170: c724 9e22 99a8 43a2 d1a4 d4a3 d61f 2826
00000180: a9a8 c222 70a8 ec22 42a4 62a6 8da5 4823
00000190: b624 2895 06a0 0022 a811 08a5 18a0 42aa
000001a0: 81aa d828 ab19 331e 87a3 3c9f 2da4 d19e
000001b0: 16a5 9b9f 5599 c320 4f9a a822 6d27 b327
000001c0: 2126 23a4 7e24 2d20 dea7 af21 0428 4028
000001d0: 6822 03a4 4988 079a 4da8 5ca4 0929 ce9c
000001e0: 2025 2821 9917 7c27 ad29 b899 1b26 1820
000001f0: 369f a925 45a4 db9e 5826 4a99 c8a9 a022

transformer.h.1.mlp.c_proj.weight f2 [128, 32]
0.002728 0.003424 0.006123 -0.01964 0.03265 -0.0461 -0.01704 0.0167
-0.01515 -0.01547 0.0005727 -0.00916 0.00982 0.0586 -0.01434 0.00519
-0.0293 0.009155 0.02353 0.02711 -0.001272 0.012505 -0.02054 -0.00759
-0.0002582 -0.005894 0.01875 0.01211 0.0151 0.02464 0.004665 -0.02142
0.001831 -0.00511 0.0395 -0.04398 0.00613 -0.006298 -0.00524 -0.01358
-0.01417 0.02664 0.005344 -0.005554 0.004444 0.00626 0.02927 0.0007696
0.015175 0.007084 -0.03525 -0.04187 0.01551 0.01665 0.00995 -0.03217
0.01341 -0.03494 -0.01805 -0.0703 -0.04077 -0.003286 0.02556 -0.005928
0.001593 0.01932 0.01787 0.00898 0.01268 0.03738 -0.008 -0.00861
-0.0008883 -0.01354 0.01427 -0.00946 0.00422 -0.001326 0.01045 0.03186
0.03406 0.02893 0.003166 -0.002716 -0.0237 0.00351 -0.0009384 0.01542
0.01341 0.00902 -0.01097 -0.03693 0.00687 0.01356 0.0001705 -0.01014
0.00477 -0.001874 0.01927 -0.02989 0.03214 0.00955 0.005665 -0.01455
0.000979 -0.011665 0.0083 0.00407 0.007393 0.004967 -0.004337 -0.01117
0.0001949 0.01736 -0.0001826 -0.000526 -0.000924 0.01393 -0.007153 0.003626
0.02628 -0.001566 -0.04745 -0.01117 0.006493 -0.0306 -0.03735 0.015144
-0.02045 -0.05655 -0.004505 0.0257 0.001788 0.012314 -0.02956 -0.04672
-0.01426 0.02618 0.01457 0.005264 -0.000751 -0.00926 0.01305 -0.01614
0.01944 -0.002188 -0.00671 0.007004 -0.004616 -0.02103 -0.00595 0.01866
0.01767 -0.005062 -0.01688 0.012886 -0.003162 -0.0003119 -0.01744 0.01994
0.01472 -0.01804 -0.02222 -0.0381 0.01831 0.02509 -0.01275 0.00609
0.01262 0.01066 -0.001073 0.002348 0.03372 0.005413 0.006683 -0.001808
0.01185 -0.02907 -0.04596 -0.02615 0.0004878 0.01883 -0.000706 -0.03366
-0.003542 0.01191 0.03503 0.03436 -0.008385 -0.009605 0.01141 0.0356
-0.02208 0.0007935 0.03973 -0.0258 0.03427 0.01171 0.001534 0.03061
0.02965 -0.01945 0.009476 0.0003068 -0.0282 -0.00741 -0.01822 0.00747
0.0393 -0.003374 -0.00923 -0.012276 0.01553 0.02763 -0.00137 -0.00405
0.02005 0.00069 -0.02301 0.009026 0.0262 -0.023 -0.02591 -0.02455
-0.00822 0.01065 0.01979 0.0007343 0.008194 0.0165 -0.005936 -0.008514
0.0448 0.005077 -0.0155 -0.01863 0.02885 -0.00914 -0.007023 -0.004894
-0.007336 -0.00832 -0.007084 -0.006054 0.01747 -0.03992 0.02354 -0.005417
-0.03296 -0.0242 0.01003 0.01081 0.007057 -0.004734 0.01341 0.01196
00000000: 9619 031b 451e 07a5 2e28 e7a9 5da4 4624
00000010: c2a3 eca3 b110 b1a0 0721 802b 58a3 511d
00000020: 80a7 b020 0626 f126 3695 6722 42a5 c69f
00000030: 3b8c 099e cd24 3322 bb23 4f26 c71c 7ca5
00000040: 8017 3c9d 0e29 a1a9 471e 739e 5e9d f4a2
00000050: 41a3 d226 791d b09d 8d1c 691e 7e27 4e12
00000060: c523 411f 83a8 5ca9 f123 4324 1821 1ea8
00000070: de22 79a8 9fa4 80ac 38a9 bb9a 8b26 129e
00000080: 8616 f224 9324 9920 7e22 c928 19a0 69a0
00000090: 4793 efa2 4e23 d8a0 521c 6e95 5a21 1428
000000a0: 5c28 6827 7c1a 9099 11a6 301b b093 e523
000000b0: de22 9e20 9ea1 baa8 091f f122 9609 31a1
000000c0: e21c ad97 ef24 a7a7 1d28 e420 cd1d 73a3
000000d0: 0314 f9a1 4020 2b1c 921f 161d 719c b8a1
000000e0: 630a 7224 fc89 4f90 9293 2223 539f 6d1b
000000f0: ba26 6a96 13aa b8a1 a61e d5a7 c8a8 c123
00000100: 3ca5 3dab 9d9c 9426 5317 4e22 91a7 fba9
00000110: 4da3 b426 7623 641d 2792 bea0 ae22 22a4
00000120: fa24 7b98 df9e 2c1f ba9c 62a5 189e c724
00000130: 8624 2f9d 52a4 9922 7a9a 1c8d 77a4 1b25
00000140: 8923 9ea4 b0a5 e0a8 b024 6c26 87a2 3c1e
00000150: 7622 7521 6594 cf18 5128 8b1d d81e 6897
00000160: 1122 71a7 e2a9 b2a6 fe0f d224 c991 4fa8
00000170: 419b 1922 7c28 6628 4ba0 eba0 d821 8f28
00000180: a7a5 8012 1629 9ba6 6328 ff21 4916 d627
00000190: 9727 fba4 da20 070d 38a7 969f aaa4 a61f
000001a0: 0829 e99a baa0 49a2 f423 1327 9d95 269c
000001b0: 2225 a711 e4a5 9f20 b526 e3a5 a2a6 49a6
000001c0: 35a0 7421 1125 0412 3220 3924 149e 5ca0
000001d0: bc29 331d f0a3 c5a4 6327 aea0 319f 039d
000001e0: 839f 43a0 419f 339e 7924 1ca9 0726 8c9d
000001f0: 38a8 32a6 2321 8921 3a1f d99c de22 2022

transformer.h.2.attn.c_attn.weight f2 [32, 96]
0.0387 0.01859 0.0042 -0.0437 -0.0094 0.01633 -0.01953 0.004326
-0.00352 -0.00849 0.01513 0.01508 -0.05066 0.01604 -0.01654 0.01534
0.02783 0.003809 0.02303 -0.00828 -0.01334 0.00703 0.00997 -0.002018
-0.015274 -0.002958 -0.00891 -0.007294 -0.0165 0.01206 0.03882 -0.003534
-0.00392 -0.02211 0.00306 0.006214 0.02193 -0.0376 -0.008385 -0.00504
-0.01333 -0.0332 0.03357 -0.0108 0.01444 0.03075 -0.04813 0.01031
0.00195 -0.01668 -0.001267 -0.01442 0.02284 -0.01118 -0.002932 0.01424
0.0005746 0.002169 0.003428 -0.02501 -0.00488 -0.004322 -0.01097 0.03134
-0.011856 0.01321 0.00973 0.006237 0.0095 0.02127 0.04996 -0.02129
-0.02525 -0.01434 -0.02806 0.00495 0.002436 0.03925 -0.02553 -0.00883
-0.0627 -0.03934 -0.003254 -0.02292 -0.02472 -0.01235 0.01522 -0.0423
-0.013794 -0.01263 0.01055 -0.01379 0.03046 0.01437 -0.0001973 -0.0321
-0.009125 0.00809 0.006794 0.00635 -0.003399 0.007748 0.001597 -0.008224
0.01167 0.00985 -0.004486 0.01083 0.04083 -0.006912 -0.006687 0.004257
-0.01865 -0.00538 -0.011154 0.02008 0.02353 0.0434 0.02246 0.03278
-0.03995 0.01947 0.02924 0.03412 -0.03412 0.005768 -0.003666 0.001587
0.0235 0.02222 0.03824 0.02748 0.00823 0.01747 0.00931 0.0309
-0.01558 0.00527 0.03305 0.01776 -0.0654 0.02963 0.02321 -0.0334
0.01678 -0.015015 -0.00226 -0.01388 -0.01362 0.02531 0.00636 0.011314
-0.0255 -0.03096 0.010254 -0.01678 0.00876 0.01947 -0.03044 0.01564
-0.02374 0.000731 0.01978 -0.011604 0.01926 -0.0447 -0.02682 -0.03738
-0.01855 0.011375 0.009445 -0.032 -0.02069 -0.007534 0.05643 -0.006607
0.01222 -0.02654 -0.0086 -0.014366 0.003479 -0.00935 -0.00803 -0.01246
-0.01442 0.00358 0.01746 0.0079 -0.03516 0.0267 -0.01175 -0.002092
-0.0317 0.00806 -0.01936 0.02838 -0.007435 0.02406 -0.05353 0.013885
-0.02379 0.00922 -0.006756 0.02715 -0.00935 0.002562 -0.013725 -0.003975
-0.01078 -0.00473 -0.01204 -0.02255 -0.015594 -0.05237 0.002096 0.005947
-0.004078 0.00967 -0.01001 0.004646 0.02164 0.01643 -0.00822 0.02895
-0.04062 0.003616 -0.01688 0.00795 0.02173 -0.01932 -0.02066 -0.00305
0.002213 -0.004894 -0.02527 -0.00581 -0.00887 -0.02415 0.01152 0.04236
0.02368 0.03458 0.010025 -0.04135 0.02736 0.02748 -0.04865 0.00881
0.0002742 0.010086 0.02032 0.01167 -0.00645 0.00237 -0.00011075 0.01556
00000000: f428 c224 4d1c 98a9 d0a0 2e24 00a5 6e1c
00000010: 359b 59a0 bf23 b923 7caa 1b24 3ca4 db23
00000020: 2027 cd1b e525 3da0 d5a2 331f 1b21 2298
00000030: d2a3 0f9a 90a0 789f 39a4 2d22 f828 3d9b
00000040: 049c a9a5 441a 5d1e 9d25 d0a8 4ba0 299d
00000050: d3a2 40a8 4c28 88a1 6523 df27 29aa 4721
00000060: fd17 45a4 3195 62a3 d925 b9a1 019a 4a23
00000070: b510 7118 051b 67a6 ff9c 6d9c 9ea1 0328
00000080: 12a2 c322 fb20 631e dd20 7225 652a 73a5
00000090: 77a6 58a3 2fa7 121d fd18 0629 89a6 85a0
000000a0: 03ac 09a9 aa9a dea5 54a6 53a2 cb23 6aa9
000000b0: 10a3 77a2 6721 0fa3 cc27 5c23 778a 1ca8
000000c0: aca0 2420 f51e 811e f69a ef1f 8b16 36a0
000000d0: fa21 0b21 989c 8c21 3a29 149f d99e 5c1c
000000e0: c6a4 829d b6a1 2425 0626 8e29 c025 3228
000000f0: 1da9 fc24 7c27 5e28 5ea8 e81d 829b 8016
00000100: 0426 b025 e528 0927 3720 7924 c420 e927
00000110: faa3 651d 3b28 8c24 30ac 9627 f125 46a8
00000120: 4c24 b0a3 a198 1ba3 f9a2 7b26 831e cb21
00000130: 87a6 eda7 4021 4ca4 7c20 fc24 cba7 0124
00000140: 14a6 fd11 1025 f1a1 ee24 b9a9 dea6 c9a8
00000150: c0a4 d321 d620 19a8 4ca5 b79f 392b c49e
00000160: 4222 cba6 67a0 5ba3 201b caa0 1da0 61a2
00000170: 62a3 551b 7824 0b20 80a8 d626 04a2 4998
00000180: 0fa8 2020 f5a4 4427 9d9f 2926 daaa 1c23
00000190: 17a6 b820 eb9e f326 caa0 3f19 07a3 129c
000001a0: 85a1 d89c 2aa2 c6a5 fca3 b4aa 4b18 171e
000001b0: 2d9c f320 20a1 c21c 8a25 3524 35a0 6927
000001c0: 33a9 681b 52a4 1220 9025 f2a4 4aa5 3f9a
000001d0: 8818 039d 78a6 f39d 8ba0 2fa6 e621 6c29
000001e0: 1026 6d28 2221 4ba9 0127 0927 3aaa 8320
000001f0: 7e0c 2a21 3425 fa21 9b9e db18 4287 f723

transformer.h.2.attn.c_proj.weight f2 [32, 32]
-0.0002894 -0.03616 0.01768 0.0166 0.03238 -0.003763 0.0151 0.003393
0.005665 -0.010765 0.00821 0.00859 0.00886 0.01136 -0.04218 -0.01116
-0.01559 7.55e-05 -0.02475 -0.009315 0.02196 -0.000808 0.04214 -0.002577
-0.0009165 0.012276 0.00462 -0.03455 0.002556 -0.01547 -0.00247 -0.03284
-0.02454 0.022 -0.00554 0.02834 -0.0256 0.02467 -0.004036 -0.04202
-0.003515 -0.002232 0.0093 -0.02577 -0.008095 0.00845 0.0005527 0.00548
-0.03683 -0.006786 0.01593 0.02124 0.04468 -0.03763 0.006126 0.01823
0.0003507 0.01656 -0.02814 0.01859 0.006336 -0.01111 0.003433 0.00973
0.0103 -0.00621 -0.00931 0.01933 0.0187 -0.02568 -0.01607 0.01084
0.00142 -0.004986 -0.02182 0.02312 0.03001 -0.001348 -0.03418 -0.002222
0.01839 0.01145 0.010155 -0.004444 0.004757 0.02278 -0.00822 0.013084
0.008575 0.00352 0.02925 0.03394 -0.01959 -0.01997 0.01743 -0.00516
-0.004734 0.00801 -0.01712 -0.03745 -0.01854 -0.001503 -0.007473 -0.0362
0.02228 -0.02614 -0.001475 0.01081 -0.00908 -0.02565 -0.01709 0.011536
-0.00853 0.01656 0.01385 0.0004344 -0.02196 -0.001705 0.01308 -0.02054
0.0023 0.0178 0.01942 -0.01504 -0.02289 -0.01614 -0.02766 0.01197
-0.013954 -0.01768 -0.0098 0.02892 0.001568 -0.0188 0.014885 -0.004486
0.01852 -0.001127 -0.03775 0.02744 -0.0172 -0.01166 -0.013535 -0.03442
0.025 -0.02168 -0.02019 0.00391 0.02312 -0.00801 -0.01121 -0.01219
-0.005207 -0.005825 0.012024 0.02406 -0.001922 -0.0077 -0.05255 0.004395
-0.00231 -0.0282 -0.02766 0.005875 0.0329 0.005924 -0.00778 -0.004185
-0.01787 -0.01359 0.03592 -0.03915 -0.007774 0.002684 0.03342 0.02155
0.01677 -0.0626 -0.04388 -0.02077 0.04617 0.02544 0.002747 0.015434
0.02977 -0.02838 0.009315 -0.002323 -0.01825 0.03668 0.00582 -0.01639
-0.006382 -0.01261 -0.02904 0.03162 0.01884 -0.01825 0.04132 0.00812
0.01153 -0.00569 0.02104 0.003483 -0.013 -0.0185 0.01395 0.01418
0.014015 0.0329 0.006947 0.0192 0.002514 -0.0298 0.002134 -0.02109
-0.02486 -0.02505 0.002134 -0.02571 0.007996 0.0555 -0.01779 0.001144
0.01476 0.008606 0.008255 -0.01187 -0.003391 -0.01767 0.02725 -0.03482
0.01765 -0.00605 -0.01352 -0.02438 -0.02087 0.01749 -0.003983 0.0231
0.02122 -0.00695 3.034e-05 0.009094 0.0348 -0.02338 -0.03062 0.04224
-0.000854 -0.02182 -0.01366 0.04184 0.05212 0.001444 -0.06143 -0.01738
00000000: be8c a1a8 8724 4024 2528 b59b bb23 f31a
00000010: cd1d 83a1 3420 6620 8920 d121 66a9 b7a1
00000020: fba3 f304 56a6 c5a0 9f25 9e92 6529 4799
00000030: 8293 4922 bb1c 6ca8 3c19 eca3 0f99 34a8
00000040: 48a6 a225 ac9d 4127 8ea6 5126 229c 61a9
00000050: 339b 9298 c320 99a6 25a0 5420 8710 9d1d
00000060: b7a8 f39e 1424 7025 b829 d1a8 461e ab24
00000070: bf0d 3d24 34a7 c224 7d1e b0a1 081b fb20
00000080: 4621 5c9e c4a0 f324 ca24 93a6 1da4 8d21
00000090: d115 1b9d 96a5 eb25 af27 8595 60a8 8d98
000000a0: b524 dd21 3321 8d9c df1c d525 35a0 b322
000000b0: 6420 351b 7d27 5828 04a5 1da5 7624 499d
000000c0: d99c 1a20 62a4 cba8 bfa4 2896 a79f a2a8
000000d0: b425 b1a6 0b96 8921 a6a0 91a6 60a4 e821
000000e0: 5ea0 3d24 1723 1e0f 9fa5 fc96 b222 42a5
000000f0: b618 8f24 f924 b3a3 dca5 22a4 15a7 2122
00000100: 25a3 87a4 05a1 6727 6c16 d0a4 9f23 989c
00000110: be24 9e94 d5a8 0627 67a4 f8a1 eea2 68a8
00000120: 6626 8da5 2ba5 011c eb25 1aa0 bda1 3ea2
00000130: 559d f79d 2822 2926 df97 e39f baaa 801c
00000140: bb98 38a7 15a7 041e 3628 111e f79f 499c
00000150: 93a4 f5a2 9928 03a9 f69f 7f19 4728 8425
00000160: 4b24 02ac 9ea9 51a5 e929 8326 a019 e723
00000170: 9f27 44a7 c520 c298 aca4 b228 f61d 32a4
00000180: 899e 75a2 6fa7 0c28 d324 aca4 4a29 2820
00000190: e721 d49d 6325 221b a8a2 bca4 2423 4323
000001a0: 2d23 3628 1d1f ea24 2619 a1a7 5f18 66a5
000001b0: 5da6 6aa6 5f18 95a6 1820 1b2b 8ea4 b014
000001c0: 8f23 6820 3a20 14a2 f29a 86a4 fa26 75a8
000001d0: 8524 329e eca2 3ea6 58a5 7a24 149c ea25
000001e0: 6f25 1e9f fd01 a820 7428 fca5 d7a7 6829
000001f0: ff92 96a5 fea2 5b29 ac2a ea15 ddab 73a4
